model.pth (torch, 244679 bytes, 10 tensors)

weight f4 [6, 1, 3, 3]
0	0xbee4daed	-0.44698277
1	0x3f0c11e7	0.54714817
2	0x3d3ffbd8	0.046871036
3	0xbf586722	-0.8453237
4	0x3f52d436	0.8235506
5	0xbd9602b6	-0.07324736
6	0xbe515be9	-0.20445217
7	0x3e41076d	0.18850489
8	0xbc870d7c	-0.016485922
9	0xbf0155c1	-0.50521475
10	0xbee71d47	-0.45139524
11	0x3d027bae	0.03185623
12	0xbf18cd34	-0.59688115
13	0xbf94d0ee	-1.162626
14	0xbecf77fe	-0.40521234
15	0xbdd006ed	-0.10157571
16	0xbe90940e	-0.28237957
17	0xbe1563a1	-0.14588787
18	0x3e55621a	0.20838204
19	0xbf5ff5f5	-0.87484676
20	0xbed883c8	-0.4228804
21	0x3f125c41	0.5717202
22	0xbf1d7fe7	-0.6152329
23	0xbdf495eb	-0.11942657
24	0x3df41529	0.119180985
25	0xbeb853b2	-0.36001354
26	0x3f318500	0.69343567
27	0xbf0e38c3	-0.5555536
28	0xbf082421	-0.5318013
29	0x3e942b86	0.28939456
30	0x3d51992b	0.051171463
31	0x3ef4f2cf	0.47841498
32	0x3eb72bd4	0.35775626
33	0x3d206a56	0.03916391
34	0x3f031428	0.5120263
35	0xbefdbe35	-0.4955918
36	0x3d01e935	0.031716544
37	0x3df75946	0.120775744
38	0x3f2d3bda	0.6766945
39	0x3e681694	0.22664863
40	0xbf008935	-0.5020936
41	0x3e8f2310	0.27956438
42	0x3e9a53b0	0.30141973
43	0xbf2f9be3	-0.6859724
44	0xbf3afe92	-0.73044693
45	0xbe7cf9b4	-0.24704629
46	0x3d9cc45e	0.076546416
47	0x3e7b6c14	0.24552947
48	0xbeaa0686	-0.33208102
49	0xbe4e558f	-0.20149826
50	0x3f09cfc6	0.5383266
51	0xbdd2fe02	-0.103023544
52	0xbf465dda	-0.77486956
53	0x3f692dc2	0.91085446

bias f4 [6]
0	0x3c1418f5	0.009039153
1	0xbfdd702d	-1.7299858
2	0xbdd26a28	-0.10274154
3	0x3dbf8af2	0.093526736
4	0x3d8d340d	0.068946935
5	0x3de9ef2d	0.11422572

weight f4 [16, 6, 3, 3]
0	0xbd1d2a9f	-0.038370725
1	0xbcbb4923	-0.022862023
2	0x3e012698	0.12612379
3	0x3c7cdc99	0.015433454
4	0xbd9d091b	-0.07667752
5	0xbd98d8be	-0.07463215
6	0xbd4e73be	-0.05040335
7	0x3de25989	0.11052234
8	0xbd895754	-0.0670611
9	0xbeb4762a	-0.35246402
10	0x3ef80a44	0.48445332
11	0x3dd360ae	0.103211746
12	0xbe74edaf	-0.23918794
13	0xbce56a13	-0.028004682
14	0x3d9d1b3d	0.07671211
15	0xbd02cd59	-0.031934116
16	0xbe103dca	-0.1408607
17	0xbe9e3d51	-0.30906156
18	0x3eab19de	0.33418173
19	0x3e502406	0.20326242
20	0xbe4cd64e	-0.20003626
21	0xbe381cb5	-0.17979701
22	0xbdb0d1b1	-0.086337455
23	0x3e541463	0.20710902
24	0xbe5af781	-0.21383478
25	0xbd1a4782	-0.03766585
26	0x3d653232	0.055956073
27	0x3db3dc7b	0.08782288
28	0xbe470b31	-0.19437863
29	0xbcd35a8f	-0.025800018
30	0xbd060f1e	-0.03272926
31	0xbd8216a2	-0.06351973
32	0x3d80fad9	0.062978454
33	0xba6535ae	-0.00087436556
34	0x3e092ad4	0.13395244
35	0xbe0371cc	-0.12836379
36	0x3d377950	0.044793427
37	0x3e551669	0.2080933
38	0x3d52e0cc	0.051483914
39	0xbd708317	-0.058718767
40	0x3bf2015f	0.0073854174
41	0x3d7747d2	0.060371228
42	0x3d2a23e3	0.04153813
43	0xbe5f673b	-0.21816723
44	0xbd29fbe6	-0.041499995
45	0x3dff1b56	0.12456386
46	0xbd1f78ee	-0.038933687
47	0x3ea829a7	0.32844278
48	0x3d9342d8	0.07190484
49	0xbdfa8149	-0.122316904
50	0x3e1cd15b	0.15314238
51	0x3cc0a2f0	0.023515195
52	0xbd537ae4	-0.05163087
53	0xbdd9308b	-0.10604962
54	0x3dc3a0d6	0.095521614
55	0xbe5d6b5d	-0.21622987
56	0xbd450ddd	-0.048108924
57	0xbd92a41b	-0.07160207
58	0xbe80c43c	-0.25149715
59	0x3dd19cdb	0.10234996
60	0xbe0fbd63	-0.14037089
61	0x3ca7e69a	0.020495702
62	0xbd1503eb	-0.03638069
63	0xbe666dee	-0.22502872
64	0x3f2b3f7f	0.6689376
65	0x3f20281e	0.62561214
66	0xbea42c5c	-0.32065094
67	0xbe4e86a4	-0.20168549
68	0xbeeb521d	-0.45961085
69	0xbe4114b5	-0.18855555
70	0x3dab5aa1	0.083668955
71	0xbe9ec022	-0.3100596
72	0x3f07aae1	0.52995116
73	0x3f2bd748	0.6712537
74	0x3e5e3f66	0.21703872
75	0xbe3c7355	-0.1840337
76	0xbe93f1dd	-0.28895465
77	0xbe392efa	-0.18084326
78	0xbde52a2a	-0.11189683
79	0x3e4cc7ef	0.19998144
80	0x3e1c6532	0.15272978
81	0x3caec634	0.021334745
82	0x3e45a36e	0.19300625
83	0x3ecf6e1b	0.4051369
84	0xbe539458	-0.20662057
85	0xbea98106	-0.3310625
86	0x3bb1be61	0.0054243063
87	0x3cebaffd	0.028770441
88	0xbca955f4	-0.020670868
89	0x3ddf53b4	0.10904637
90	0xbe1cbb32	-0.15305784
91	0xbe2517ff	-0.16122435
92	0xbe11cd9b	-0.14238589
93	0xbdc9731f	-0.09836411
94	0xbb35abb3	-0.002772075
95	0xbe4ea610	-0.20180535
96	0x3df54a1d	0.119770266
97	0xbd1c431a	-0.03814993
98	0x3d17fadb	0.03710447
99	0xbe4bdcc0	-0.19908428
100	0xbef8c1ec	-0.4858545
101	0x3d1d64e3	0.03842629
102	0xbe6798df	-0.2261691
103	0xbdaede4e	-0.08538495
104	0xbdca14c0	-0.09867239
105	0xbea181ae	-0.3154425
106	0x3c1d1257	0.009586892
107	0x3d458708	0.04822448
108	0x3edfc568	0.43705297
109	0xbd793d20	-0.06084931
110	0xbe83b480	-0.25723648
111	0x3ecdfe98	0.40233302
112	0x3dc3fd6d	0.095698215
113	0xbe4a738f	-0.19770645
114	0x3db2ac83	0.0872431
115	0xbdd4127f	-0.1035509
116	0xbe97b86c	-0.2963289
117	0xbe214fd9	-0.15753116
118	0x3d9b6bdc	0.07588932
119	0x3b9612d2	0.0045798803
120	0xbdca145c	-0.098671645
121	0x3dd30b87	0.10304933
122	0x3d20f1d1	0.039293114
123	0x3d803d4d	0.06261692
124	0x3c0ebde9	0.00871227
125	0x3e8fa712	0.28057152
126	0xbe45536d	-0.19270106
127	0x3d602b5e	0.05472886
128	0xbce1cc7b	-0.027563324
129	0xbe7192bb	-0.2359113
130	0xbe14023c	-0.14453977
131	0xbe429f5a	-0.190061
132	0xbe424e4f	-0.18975185
133	0xbe9c50d6	-0.30530423
134	0xbe0c2205	-0.13684852
135	0x3a2ea56f	0.0006662225
136	0xbe478160	-0.19482946
137	0xbd90add9	-0.07064409
138	0xbe248e16	-0.16069826
139	0x3d02ccac	0.03193347
140	0x3e05a60f	0.13051628
141	0x3bbf7dac	0.0058438387
142	0x3cd2e2fd	0.025743002
143	0x3d4eedc8	0.050519735
144	0xbe57a915	-0.21060593
145	0x3c94b7ec	0.018154107
146	0x3c1b18e1	0.009466381
147	0xbd95c3b5	-0.07312719
148	0xbdb2f9a1	-0.08739019
149	0xbdf24ed4	-0.118314415
150	0x3d534af8	0.051585168
151	0xbd60e862	-0.054909118
152	0x3ea85705	0.3287889
153	0x3ed20699	0.4102066
154	0xbe8deffb	-0.27722153
155	0x3cb73e7f	0.022368668
156	0x3ebdff90	0.3710904
157	0xbe56a1a6	-0.20960101
158	0xbe02e79a	-0.12783661
159	0x3e60af34	0.21941835
160	0xbe821948	-0.25409913
161	0xbda75fa5	-0.081725396
162	0xbd8ea373	-0.06964769
163	0xbd46d2d1	-0.048540894
164	0xbe029e18	-0.1275562
165	0xbe144a82	-0.14481547
166	0x3e66cd32	0.22539213
167	0x3cf8562a	0.030314524
168	0xbc8d2335	-0.017228702
169	0x3db273b8	0.08713478
170	0xbe69d89c	-0.22836536
171	0x3e4427d5	0.1915582
172	0x3d23fe54	0.040037468
173	0xbecc4c46	-0.39901942
174	0xbe664ec3	-0.22490983
175	0xbeb60402	-0.35549933
176	0x3f236922	0.63832295
177	0xbc48f394	-0.012265105
178	0xbec1ba99	-0.37837675
179	0x3f4c0f97	0.7971129
180	0x3df2b1be	0.11850308
181	0xbc947223	-0.01812083
182	0xbe704e51	-0.23467375
183	0xbdae6193	-0.085147046
184	0xbe0f8ed7	-0.14019333
185	0x3cc4b014	0.024009742
186	0xbe0f4880	-0.139925
187	0xbd578317	-0.05261525
188	0x3e9468f2	0.28986317
189	0xbdfc6c61	-0.12325359
190	0x3e8fe1da	0.28102
191	0xbd17c4fe	-0.0370531
192	0x3e4d084a	0.20022693
193	0x3e8495d2	0.25895554
194	0xbd2c3c82	-0.042049892
195	0x3d995534	0.07486954
196	0xbdcca8b3	-0.09993114
197	0xbe11d9d7	-0.14243256
198	0xbe012d7d	-0.12615009
199	0xbeb19c10	-0.3468938
200	0x3b8ebd4b	0.0043560616
201	0xbde43b49	-0.1114412
202	0x3d498517	0.04919919
203	0x3e5e3380	0.21699333
204	0xbe1656ae	-0.14681503
205	0xbd60d558	-0.05489096
206	0x3e49fd76	0.19725594
207	0x3dc0b6c1	0.094098575
208	0x3e735a29	0.23764862
209	0x3bb301b7	0.005462851
210	0xbe00d9e6	-0.12583122
211	0xbde19988	-0.11015612
212	0x3dd6c8aa	0.104874924
213	0xbccd140e	-0.025033977
214	0xbdae1739	-0.08500523
215	0xbde6b0a3	-0.112641595
216	0xbe742263	-0.23841242
217	0x3dc1eb04	0.09468654
218	0xbcd08974	-0.025456168
219	0x3cea69ac	0.028614841
220	0xbc98c40e	-0.018648174
221	0x3e020974	0.12698919
222	0x3cda28cc	0.026630782
223	0x3e2b74e4	0.16743809
224	0x3dcab0dc	0.098970145
225	0x3e05b7dd	0.1305842
226	0x3ec42065	0.38305965
227	0x3c5f729c	0.013638165
228	0xbe86324c	-0.26210248
229	0x3e1333fa	0.14375296
230	0xbd0c7b01	-0.034296993
231	0xbe0e3160	-0.13886023
232	0x3e803b9b	0.25045475
233	0xbeaae067	-0.3337433
234	0x3e03a341	0.12855245
235	0xbe345553	-0.17610674
236	0x3dfd2650	0.12360823
237	0xbe43b62c	-0.19112462
238	0x3cc51768	0.024059013
239	0x3d543771	0.051810686
240	0xba6806b4	-0.00088510965
241	0x3e59323a	0.21210566
242	0xbe35ff18	-0.17773092
243	0xbe208380	-0.15675163
244	0xbdf8f264	-0.12155607
245	0x3e2183b0	0.15772891
246	0xbe4f8db2	-0.20268896
247	0xbd8debe1	-0.06929756
248	0x3de06a55	0.10957781
249	0xbe2264aa	-0.15858713
250	0xbd281926	-0.04103961
251	0xbca7a00a	-0.020462055
252	0xbd88efb0	-0.06686342
253	0xbd73b350	-0.059497178
254	0xbe0a54f5	-0.13508971
255	0xbe150a27	-0.14554654

bias f4 [16]
0	0xbe6a2960	-0.22867346
1	0x3dc8b768	0.09800607
2	0x3dce948e	0.10086928
3	0xbd9d32ae	-0.07675682
4	0x3d442fd4	0.047897175
5	0xbe230473	-0.15919666
6	0xbe1f42ff	-0.155529
7	0xbe957127	-0.2918789
8	0xbe1a8d59	-0.15092982
9	0xbecc5c45	-0.39914146
10	0xbdf9b002	-0.12191774
11	0xbe900a9a	-0.28133088
12	0xbd8fc6c1	-0.07020331
13	0x3c22e41a	0.009942079
14	0x3eb8d9c7	0.3610365
15	0xbda68567	-0.08130913

weight f4 [120, 400]
0	0xbd345a3d	-0.04403137
1	0xbd251b1e	-0.040309064
2	0xbca0caed	-0.019628013
3	0xbcc0741a	-0.023492862
4	0x3bf608a2	0.0075083533
5	0xbc830371	-0.015992852
6	0x3aba3ddc	0.0014209109
7	0xbd3a9081	-0.045547966
8	0x3ca4b6b7	0.020106656
9	0x3ce1c0d5	0.02755777
10	0xbd1684f9	-0.036747906
11	0x3bcb60ac	0.0062065925
12	0xbcbaa7ec	-0.02278515
13	0xbc16c509	-0.00920225
14	0x3d43da22	0.04781545
15	0x3d1def8d	0.03855853
16	0x3c6c819b	0.014435197
17	0xbaee4a15	-0.0018180037
18	0x3d4d26c6	0.050085805
19	0x3d8e1a08	0.06938559
20	0xbcf992dd	-0.030465538
21	0x3be4cfd9	0.006982785
22	0xbc3fa804	-0.011697773
23	0x3d5c0068	0.053711325
24	0x3d8127e6	0.06306438
25	0x3d449c93	0.048000883
26	0xbde3e83c	-0.111282796
27	0xbde15943	-0.110033534
28	0xba333d8b	-0.0006837479
29	0xbe0e253a	-0.13881388
30	0x3ddbb3cb	0.10727652
31	0xbd8072ff	-0.06271934
32	0xbcc3a2a5	-0.023881266
33	0xbdc291d9	-0.095004745
34	0x3da7831d	0.08179305
35	0x3d6e68ac	0.05820529
36	0x3dbbe05f	0.09173655
37	0x3cce191e	0.025158461
38	0x3dd7355f	0.105082266
39	0x3d414eb4	0.047194198
40	0x3ca56f76	0.02019475
41	0x3c883df8	0.016631112
42	0xbd56aef0	-0.052412927
43	0xbcf847f2	-0.030307744
44	0xbc15d4df	-0.009144991
45	0x3a564a82	0.00081745547
46	0xbbedd0ba	-0.007257548
47	0x3c373c57	0.01118382
48	0xbd923d66	-0.07140617
49	0xbd9f64cc	-0.07782897
50	0xbc4ffb76	-0.01269423
51	0xbd40f3d1	-0.04710752
52	0x3da661e2	0.081241384
53	0x3da27fba	0.07934518
54	0xbc94d832	-0.018169496
55	0xbd69400f	-0.056945857
56	0xbe0ec94c	-0.13943976
57	0x3db3a953	0.087725304
58	0x3d7203c3	0.05908562
59	0xbd09e3af	-0.0336644
60	0xbcb55589	-0.022135513
61	0xbd649acf	-0.0558117
62	0x3b0f604e	0.002187747
63	0x3dbc457f	0.09192943
64	0xbb80fc4a	-0.003936325
65	0xbc37a801	-0.011209489
66	0xbc8ec864	-0.017429538
67	0x3a732d42	0.00092764583
68	0xbd041b86	-0.03225281
69	0x3d8aef70	0.0678395
70	0xbd76f324	-0.06029047
71	0xbd85339c	-0.06503984
72	0x3e01e9dd	0.12686868
73	0x3ccb3998	0.024807736
74	0x3d3d80a6	0.046265267
75	0x3d492629	0.049108658
76	0xbc354f7f	-0.011066317
77	0x3b8bf221	0.0042708074
78	0x3db7cfa0	0.08975148
79	0xbcca0175	-0.024658898
80	0x3e024316	0.12720904
81	0x3dd56ea7	0.10421496
82	0x3ca8afea	0.020591695
83	0x3df48230	0.11938894
84	0xbdbb7121	-0.09152437
85	0xbcceba52	-0.025235329
86	0x3ddec851	0.10878051
87	0x3ca3dbe0	0.020002306
88	0xbd5cd318	-0.053912252
89	0xbadce2a5	-0.0016852213
90	0xbbf2dd48	-0.0074116327
91	0x3d2f0aef	0.042735036
92	0x3c987cc3	0.018614179
93	0xbdc33811	-0.09532178
94	0x3d6a01d6	0.057130657
95	0x3d27d606	0.040975593
96	0xbd262b80	-0.04056883
97	0xbe3f8682	-0.18703654
98	0xbd2c45e3	-0.042058837
99	0xbca024f4	-0.01954887
100	0x3de11341	0.109900005
101	0xbc820987	-0.015873684
102	0x3c75fec8	0.015014358
103	0x3c5b0371	0.01336752
104	0xbcf6f05c	-0.03014391
105	0xbd428da6	-0.047498368
106	0x3cc648a4	0.02420456
107	0xbd370581	-0.044682983
108	0x3cbea2ab	0.023270926
109	0x3c07cc97	0.008288524
110	0x3dcf3f5a	0.10119505
111	0x3b047c24	0.0020215595
112	0xbc442eb3	-0.011974025
113	0x3df13642	0.11777927
114	0x3ccebc3c	0.025236242
115	0x3e33269e	0.174952
116	0xbc9a2d8b	-0.018820545
117	0x3cae52c0	0.021279693
118	0x3bcd44f1	0.006264322
119	0xbcadf37b	-0.021234265
120	0xbe1a2812	-0.15054348
121	0x3ce2eedd	0.02770179
122	0xbe02ee00	-0.12786102
123	0xbd8879a9	-0.0666383
124	0xbe307295	-0.1723121
125	0xbbf75238	-0.007547643
126	0x3cbd5d6f	0.023115842
127	0xbccbd073	-0.02487967
128	0xbd0f8437	-0.0350382
129	0x3da3d734	0.08000031
130	0xbc724c83	-0.01478875
131	0x3b9f87e9	0.0048684967
132	0xbd422c45	-0.0474055
133	0x3d1b88cf	0.037972268
134	0x3ca7f5f4	0.020503022
135	0x3d1045b4	0.035222724
136	0x3c014693	0.007890361
137	0xbdb03090	-0.086030126
138	0x3d87e62a	0.06635697
139	0xbd75859b	-0.05994187
140	0xba876f07	-0.0010332771
141	0x3b90a6a8	0.004414398
142	0x3d25beb9	0.04046509
143	0x3de0c68b	0.10975369
144	0x3d28818f	0.04113918
145	0x3c683383	0.014172438
146	0x3cdaf616	0.026728671
147	0xbd08057f	-0.033208366
148	0x3d935608	0.071941435
149	0xbb9db101	-0.0048123603
150	0x3d679f2f	0.056548294
151	0x3767425c	1.3784123e-05
152	0xbd9d03ba	-0.076667264
153	0x3c6abc9d	0.0143271955
154	0x3cb294bf	0.021799443
155	0xbd6cd939	-0.057824347
156	0xbd137bfe	-0.03600692
157	0x3c0f86d4	0.008760173
158	0x3cb62f21	0.02223927
159	0x3e176320	0.14783907
160	0xbd49c7f1	-0.049262945
161	0xbc309c74	-0.010779489
162	0xbd348620	-0.044073224
163	0x3dda196b	0.10649379
164	0x3e15b5e4	0.14620167
165	0xbd73a909	-0.059487376
166	0xbcd6b16a	-0.026207644
167	0xbda232bd	-0.07919834
168	0xbd361a5b	-0.04445873
169	0x3e07d535	0.13264926
170	0xbcddae90	-0.027060777
171	0xbcfada20	-0.030621588
172	0xbc98a09a	-0.018631268
173	0xbe0fba4c	-0.1403591
174	0xbd16c893	-0.036812376
175	0x3d149b27	0.036280777
176	0x3e807903	0.25092325
177	0xbd83367e	-0.06406878
178	0x3e025dcd	0.12731095
179	0xbc84e9f2	-0.016224835
180	0x3d9d9688	0.07694727
181	0x3d84b143	0.064791225
182	0xbd0c52bd	-0.034258593
183	0xbc0ee509	-0.008721598
184	0xbbacbb47	-0.0052713486
185	0xbcd54715	-0.026034871
186	0xbc6f41f2	-0.014603125
187	0x3c40963a	0.011754567
188	0xbd91632f	-0.07098996
189	0xbd87a989	-0.06624133
190	0xbcda6ef8	-0.026664242
191	0x3dc08253	0.09399857
192	0x3c9b7884	0.018978365
193	0xbd17cf49	-0.037062917
194	0xbcd6ad86	-0.02620579
195	0x3be636fe	0.0070255985
196	0x3d502078	0.050812215
197	0x3cb4b888	0.022060648
198	0xbb1e8772	-0.0024189618
199	0xbe41d560	-0.18929052
200	0x3da853d9	0.08219118
201	0xbb4ed6b8	-0.0031561088
202	0x3d353be9	0.044246588
203	0x3c01f451	0.007931785
204	0x3d870f80	0.06594753
205	0x3cd9a29f	0.026566802
206	0x3d64309e	0.055710427
207	0xbd0237b0	-0.03179139
208	0x3dff34c0	0.12461233
209	0xbd0113bb	-0.031512957
210	0x3cab8301	0.020936491
211	0x3c19351f	0.009351044
212	0xbd9fdf09	-0.078062125
213	0x3def9054	0.1169745
214	0xbd2fbe6e	-0.042906217
215	0xbdf5f4c8	-0.12009579
216	0x3d2a938b	0.041644614
217	0xbd598122	-0.053101666
218	0x3c87eabf	0.016591428
219	0x3d197aa3	0.03747047
220	0x3e650099	0.22363509
221	0xbdef803b	-0.1169438
222	0xbd9d3558	-0.0767619
223	0xbdacf1a7	-0.08444529
224	0x3e9f08fe	0.31061548
225	0xbbd87164	-0.006605314
226	0xbd18f85f	-0.03734624
227	0xbd61460f	-0.054998454
228	0xbd16018a	-0.03662256
229	0x3cc43187	0.023949398
230	0xba4cdfa9	-0.00078153104
231	0x3dd53402	0.1041031
232	0xbcaf0563	-0.021364873
233	0xbd09ce56	-0.033644043
234	0x3dc91c70	0.09819877
235	0xbcf2a322	-0.029618803
236	0xbd79357e	-0.06084203
237	0xbd0226c4	-0.03177525
238	0xbcda5746	-0.026652943
239	0x3b8fa4b3	0.0043836473
240	0xbcc221b8	-0.023697719
241	0xbcc571d7	-0.024102135
242	0xbd0ff78c	-0.03514819
243	0xbc567859	-0.013090217
244	0xbd1049de	-0.035226695
245	0xbe067646	-0.13131055
246	0x3da08943	0.078386806
247	0xbd7b4b29	-0.061350975
248	0xbdf2fbd6	-0.1186444
249	0x3d80c2b9	0.062871404
250	0xbc5f3fcb	-0.013626049
251	0x3bf02c1e	0.007329478
252	0x3c7d9f58	0.015479885
253	0xbc7718a7	-0.015081561
254	0x3b1e2e23	0.0024136386
255	0xbbde469c	-0.0067833196

bias f4 [120]
0	0xbda84a0c	-0.08217248
1	0x3d821e17	0.063533954
2	0x3c8eafd0	0.017417818
3	0xbd3d0c00	-0.046154022
4	0x3dbe2d88	0.09286028
5	0xbc361ece	-0.011115743
6	0xbc86715e	-0.01641148
7	0xbd29ee1f	-0.041486856
8	0xbb707238	-0.0036689173
9	0xbd35d7ad	-0.044395138
10	0xbc806497	-0.015672965
11	0x3d09687c	0.03354691
12	0x3d06291c	0.03275405
13	0x3d3028d2	0.04300768
14	0xbce5f7b3	-0.028072214
15	0xbc880429	-0.016603546
16	0x3d0c7af7	0.034296956
17	0xbb289fbd	-0.0025729977
18	0xbd2526ac	-0.040320083
19	0x3d13c9e7	0.03608122
20	0xbbfeb4cc	-0.0077730175
21	0xbd11f95c	-0.0356382
22	0xbd531501	-0.051533703
23	0x3d6c2b3e	0.057658426
24	0xbd562a47	-0.052286413
25	0x3db475e3	0.088115476
26	0x3d8f4120	0.069948435
27	0x3cf90fc9	0.030403035
28	0xbd0de229	-0.03463951
29	0xbbf436dd	-0.0074528293
30	0x3c4ffeac	0.012694996
31	0xbcde7091	-0.027153285
32	0xbcf4f83e	-0.029903527
33	0x3cffc4bd	0.031221742
34	0xbcbbad67	-0.022909833
35	0xbb892fab	-0.0041865907
36	0xbcc90a27	-0.024540974
37	0xbc0e96c2	-0.008702936
38	0xbd0a9ec0	-0.033842802
39	0x3cb10d33	0.02161274
40	0xbd3a9abb	-0.04555772
41	0x3b5493b3	0.0032436668
42	0x3da9ab9e	0.082846865
43	0xbd8a7b13	-0.06761756
44	0xbadc3327	-0.0016799913
45	0x3d8d195f	0.06889605
46	0x3d8b7b1d	0.06810591
47	0xbd949dac	-0.07256636
48	0x3d222fc4	0.039596334
49	0xbd4b77b1	-0.049674693
50	0x3c6569ee	0.014002306
51	0x3cd3608a	0.02580287
52	0xbd18d533	-0.037312698
53	0xbde1f72b	-0.11033472
54	0x3d57f379	0.052722428
55	0x3d2d8044	0.04235865
56	0x3ba6ed9b	0.0050942427
57	0xbd01986c	-0.0316395
58	0x3b5fa9d7	0.0034128332
59	0xbc9faffc	-0.019493096
60	0xbb910e5e	-0.0044267615
61	0x3dc53d9e	0.09630893
62	0xbc918963	-0.017765706
63	0xbc92ae5a	-0.017905403
64	0xbd69942d	-0.057026077
65	0xbbd9c829	-0.0066461754
66	0x3db0f694	0.08640781
67	0xb94becb8	-0.00019447773
68	0x3da2e337	0.07953494
69	0x3d1b5f93	0.037932944
70	0xbd1a63a1	-0.03769267
71	0x3bd7f3b1	0.0065903296
72	0x3cbf3a2d	0.02334317
73	0x3d938d2c	0.07204661
74	0x3bdf9c93	0.006824085
75	0x3d956328	0.07294303
76	0x3c98f91d	0.018673474
77	0xbc9e1f21	-0.019301953
78	0x3d1c12b5	0.038103778
79	0x3cb6e82a	0.022327501
80	0x3d070130	0.032960117
81	0x3d57420c	0.05255322
82	0x3d525602	0.051351555
83	0x3dc0c681	0.094128616
84	0xbd7de6d2	-0.061987706
85	0x3d293c42	0.041317232
86	0xbd09df55	-0.03366025
87	0x3c34704e	0.011013104
88	0x3d2692e2	0.040667422
89	0xbd83c00c	-0.064331144
90	0xbd1ef344	-0.038806215
91	0x3dfae877	0.122513704
92	0x3c47ac9a	0.0121871475
93	0xbb83b452	-0.0040192986
94	0xbd8cc093	-0.06872668
95	0x3d0c9377	0.03432032
96	0xbba71b54	-0.0050996933
97	0x3da95b35	0.082693495
98	0x3d0411f5	0.032243688
99	0x3d1c6c33	0.038189124
100	0x3d25d8d7	0.040489998
101	0x3d60a1fc	0.05484198
102	0x3cfe564a	0.031047005
103	0xbb30e3b8	-0.00269912
104	0xbd52d2ed	-0.051470686
105	0x3d107727	0.035269883
106	0x3cd62750	0.026141793
107	0xbd55d32d	-0.052203346
108	0x3d8b06fa	0.0678844
109	0x3c9232f6	0.017846566
110	0x3ce288a9	0.027653055
111	0xbd25db2d	-0.040492225
112	0xbae9e79d	-0.0017845515
113	0xbc7bf658	-0.015378557
114	0xbcd81192	-0.026375566
115	0x3db37b15	0.087637104
116	0xbd1c8b24	-0.038218632
117	0xbc9a0f9a	-0.018806268
118	0x3be86be2	0.0070929388
119	0x3c9dd324	0.019265719

weight f4 [84, 120]
0	0xbd353430	-0.044239223
1	0x3e246f84	0.16058165
2	0xbd6011e2	-0.054704554
3	0x3d9da27a	0.076970056
4	0xbdb0c1f9	-0.08630747
5	0xbe0441d8	-0.12915742
6	0xbe2d0e75	-0.16900046
7	0x3d1c642d	0.038181473
8	0x3d58bc41	0.052913908
9	0x3bbbd84a	0.005732571
10	0x3c64ae7d	0.013957617
11	0x3d4cf47a	0.05003784
12	0xbdc035b6	-0.093852445
13	0xbdbeb934	-0.093126684
14	0xbd3fa813	-0.046791147
15	0xbd0fe7d4	-0.035133198
16	0x3dc3c51d	0.09559081
17	0xbe121fd1	-0.1426995
18	0xbdc3cf89	-0.095610686
19	0xbe1e029e	-0.15430686
20	0xbd75f364	-0.06004657
21	0xbdb10d63	-0.086451314
22	0x3cc7dd32	0.024397466
23	0x3e18d20f	0.14923881
24	0x3e147705	0.14498527
25	0xbb3bf329	-0.002867887
26	0x3e3901f8	0.18067157
27	0xbca09d5b	-0.019606283
28	0xbd8cfb1c	-0.06883833
29	0xbdef9c16	-0.11699693
30	0xbe0d8f4b	-0.13824193
31	0x3da429bf	0.08015775
32	0x3cf8c582	0.030367617
33	0x3bb0bce7	0.0053936127
34	0x3d75f67c	0.06004952
35	0x3e116970	0.14200377
36	0x3d6593b2	0.056049056
37	0xbe08ca4d	-0.13358422
38	0xbd39320e	-0.04521375
39	0xbe084418	-0.13307226
40	0xbdae8461	-0.08521343
41	0xbe2ced13	-0.16887312
42	0xbdea51e2	-0.11441399
43	0x3d933471	0.07187737
44	0xbd5f814e	-0.054566674
45	0x39d17f35	0.00039958363
46	0xbe02b90b	-0.12765901
47	0xbd169f4a	-0.036773004
48	0xbdcfa8a3	-0.10139587
49	0x3d26b64a	0.04070119
50	0xbda3b7d3	-0.07994046
51	0x3e31b39b	0.1735367
52	0xbd9aae2c	-0.07552752
53	0xbaf92bde	-0.0019010266
54	0xbd33e377	-0.0439181
55	0xbd9e1515	-0.07718865
56	0x3db374a5	0.087624826
57	0x3d6d9774	0.058005765
58	0xbca4a97e	-0.020100351
59	0x3d1f0b1a	0.038828947
60	0xbd941f90	-0.072325826
61	0x3cb70789	0.02234246
62	0xbde18aa5	-0.110127725
63	0xbdc1c62d	-0.09461627
64	0xbdb33a57	-0.08751362
65	0x3d551f16	0.0520316
66	0xbda29dca	-0.07940252
67	0xbdc28e79	-0.09499831
68	0x3e5c2079	0.21496762
69	0x3ce436f8	0.027858242
70	0xbced03d7	-0.028932495
71	0x3dce304f	0.10067808
72	0xbd3f9aee	-0.04677861
73	0xbdbc5824	-0.09196499
74	0x3e3ebe57	0.18627296
75	0xbd811aab	-0.06303915
76	0xbe167a74	-0.1469515
77	0xbdecc983	-0.11561873
78	0xbd5ef22c	-0.05443017
79	0xbdd60ca6	-0.10451631
80	0x3c2d23d4	0.010567624
81	0xbdc20fab	-0.09475645
82	0x3d5e9a0a	0.05434612
83	0x3e477263	0.19477229
84	0xbe064d87	-0.13115512
85	0xbe321179	-0.17389478
86	0xbdce4a5d	-0.100727774
87	0xbd013c6e	-0.03155177
88	0xbd2c4915	-0.042061884
89	0x3cb18934	0.021671869
90	0x3cbc2d07	0.02297069
91	0xbd41ea6f	-0.047342714
92	0x3bb5c2b0	0.00554689
93	0x3c3dcadc	0.01158401
94	0x3d560a15	0.05225571
95	0x3d7a60a6	0.061127327
96	0x3cea0cdb	0.028570583
97	0x3e0ce0af	0.13757585
98	0xbd3afef4	-0.0456533
99	0xbd8ae55e	-0.067820296
100	0xbdb5850e	-0.08863269
101	0xbe688a02	-0.22708896
102	0x3d6de211	0.05807692
103	0xbd50f568	-0.051015288
104	0x3db28612	0.08716978
105	0xbd6ad153	-0.057328533
106	0x3db11085	0.08645729
107	0x3d74a1b6	0.059724532
108	0xbe5787c4	-0.21047884
109	0xbc34c8de	-0.011034219
110	0x3dd27275	0.10275737
111	0x3db80a48	0.08986336
112	0xb95e55b5	-0.00021203498
113	0xbcbc6151	-0.022995623
114	0xbc4b3bb2	-0.012404369
115	0xbdf0a62a	-0.11750443
116	0x3d39d027	0.045364525
117	0xbd807ee8	-0.062742054
118	0xbd8e3120	-0.069429636
119	0xbd61f5ff	-0.05516624
120	0xbdc9d862	-0.09855725
121	0x3de77e02	0.11303331
122	0xbd6785a5	-0.056523938
123	0x3db485c9	0.0881458
124	0xbd88fc13	-0.06688704
125	0xbd6e0d32	-0.058118053
126	0xbdb33ae8	-0.0875147
127	0xbd9e6f83	-0.07736113
128	0xbe08e03f	-0.13366793
129	0x3d6e42c5	0.058169145
130	0x3cf25bc5	0.029584775
131	0xbdda4499	-0.10657615
132	0xbe04b1f1	-0.12958504
133	0x3e4c9285	0.19977768
134	0xbd70566c	-0.05867617
135	0x3dcc5297	0.0997669
136	0xbd95fd17	-0.07323664
137	0xbe014e00	-0.12627411
138	0x3ba3c91f	0.0049983407
139	0xbe1b41b5	-0.15161784
140	0xbd332fcc	-0.043746755
141	0xbda57d51	-0.08080543
142	0x3cfdf0d9	0.030998634
143	0xbda8fb6b	-0.08251079
144	0x3de1f78d	0.11033545
145	0xbb10aba6	-0.0022074967
146	0xbd15b4da	-0.036549427
147	0x3dc133ae	0.09433685
148	0xbd35d085	-0.044388313
149	0xbd2fa89a	-0.0428854
150	0x3af5cb45	0.0018752596
151	0x3dcb31a1	0.09921575
152	0xbcb64f9c	-0.022254758
153	0x3b9a380f	0.0047063897
154	0x3d63df12	0.05563266
155	0x3d0ba2e3	0.034090888
156	0xbccca111	-0.024979146
157	0xbd1c2573	-0.03812165
158	0x3b1047af	0.0022015383
159	0xbd54b27a	-0.05192802
160	0x3e0dcd5e	0.13847873
161	0xbd052397	-0.032504644
162	0xbcf4c91a	-0.029881049
163	0x3de17ee6	0.11010532
164	0xbe0c359d	-0.13692327
165	0xbe7eea0a	-0.24893966
166	0xbcb4a2c9	-0.022050278
167	0xbcadd7ec	-0.021221124
168	0xbdff89db	-0.12477466
169	0xbdeee553	-0.11664834
170	0xbe2ee1df	-0.1707835
171	0x3d87c848	0.066299975
172	0x3dcefbc1	0.10106612
173	0x3e08fa25	0.13376673
174	0xbd745828	-0.059654385
175	0x3cbed8f4	0.02329681
176	0x3d7cc2f4	0.06170936
177	0x3da3473d	0.07972572
178	0xbe180db8	-0.14848983
179	0x3d81987c	0.06327912
180	0xbc051744	-0.008123223
181	0xbd1f7fed	-0.03894036
182	0x3e0b01d4	0.13574916
183	0x3cf194e4	0.029489942
184	0x3c54496d	0.012956959
185	0xbc8d54e4	-0.017252393
186	0xbceb602a	-0.028732378
187	0x3daba8ff	0.08381843
188	0xbd03155a	-0.032002784
189	0x3c50466e	0.012712104
190	0xbca078c2	-0.019588832
191	0xbd3bec77	-0.045879807
192	0x3d2cb3fc	0.042163834
193	0xbdeab998	-0.114611804
194	0xbe7d5064	-0.24737698
195	0xbde37fcb	-0.11108359
196	0x3b0d3210	0.0021544732
197	0x3d7b5108	0.061356574
198	0xbdae74e0	-0.08518386
199	0xbe1b9af8	-0.15195835
200	0x3d716c44	0.05894114
201	0x3d0d55d4	0.03450568
202	0xbc49cad0	-0.012316421
203	0x3cff3eb1	0.031157823
204	0xbd093e91	-0.033506934
205	0x3dc08157	0.093996696
206	0xbe22f237	-0.1591271
207	0x3baca7f3	0.0052690445
208	0x3d83af71	0.06429947
209	0x3c606ba3	0.013697538
210	0xbdd001d0	-0.10156596
211	0xbdddcade	-0.108297095
212	0x3d1961eb	0.037446897
213	0x3e42de31	0.19030072
214	0x3d513802	0.051078804
215	0x3e0edde0	0.13951826
216	0xbc1fe144	-0.009758297
217	0xbdb1365f	-0.086529486
218	0xbd5a3771	-0.05327553
219	0x3c908636	0.017642122
220	0xbe031f2d	-0.12804861
221	0x3d2576da	0.04039655
222	0xbe57f85d	-0.21090837
223	0x3dfaf6e0	0.12254119
224	0xbe82b3f7	-0.25527927
225	0xbdc4dbf8	-0.09612268
226	0xbdc708ec	-0.097184986
227	0xbc8f6057	-0.017501993
228	0x3e1ad76a	0.15121236
229	0xbbc494b2	-0.005999171
230	0x3d57479a	0.05255852
231	0x3cac7035	0.021049598
232	0x3de93011	0.11386121
233	0x3cfec1aa	0.031098206
234	0xbc17e0e3	-0.009269926
235	0x3e5adc6e	0.2137315
236	0xbd662c8e	-0.056194834
237	0xbda70515	-0.08155266
238	0x3e2505a0	0.16115427
239	0xbc90f043	-0.01769269
240	0xbd6b0c34	-0.057384685
241	0xbd1becc2	-0.038067587
242	0x3da6b67f	0.08140277
243	0xbdae9704	-0.08524898
244	0xbd1377e1	-0.036002997
245	0x3d08da08	0.033411056
246	0x3da7e9b0	0.08198869
247	0xbcccab42	-0.024984006
248	0xbd76c4ac	-0.060246155
249	0xbd2317e7	-0.039817717
250	0xbdc2e95d	-0.09517167
251	0xbdad8427	-0.08472472
252	0x3d3e83d2	0.046512432
253	0x3e280b78	0.16410625
254	0xbd91b11a	-0.071138576
255	0xbd104f8e	-0.03523212

bias f4 [84]
0	0x3dcb9d66	0.09942131
1	0x3e080b8b	0.13285653
2	0xbd2a8f1f	-0.041640397
3	0x3de6b593	0.11265101
4	0xbdcec14d	-0.10095463
5	0xbd64344f	-0.055713948
6	0x3d930a9e	0.071797594
7	0x3c0ed4e5	0.00871775
8	0x3d621343	0.05519415
9	0x3d00b917	0.031426515
10	0x3e0ff912	0.14059857
11	0xbde07465	-0.109597005
12	0x3e0f36ac	0.139857
13	0x3db1b254	0.086765915
14	0xbdcb6e2a	-0.099331215
15	0xbc9afc31	-0.018919082
16	0xbca45735	-0.020061115
17	0x3e01bc1f	0.12669419
18	0x3b8cd76d	0.0042981417
19	0xbda1b505	-0.07895855
20	0x3d4293de	0.0475043
21	0x3dcde57c	0.10053536
22	0x3d593e08	0.053037673
23	0xbd3a7e2f	-0.045530494
24	0x3d8a6f03	0.06759455
25	0xbc5497b2	-0.01297562
26	0xbdaaeafe	-0.083456025
27	0x3e1b6726	0.15176067
28	0x3dc86eb9	0.09786744
29	0xbd587c75	-0.052853066
30	0xbd32a16c	-0.043610975
31	0xbde60955	-0.11232249
32	0xbdd2905e	-0.10281442
33	0x3dcb3c90	0.09923661
34	0xbcffa4ef	-0.031206576
35	0x3de23efe	0.11047171
36	0xbb994e1a	-0.0046785
37	0xbd60d92c	-0.05489461
38	0xbd6963af	-0.05697983
39	0x3d9071e1	0.07052971
40	0xbdadaf29	-0.08480675
41	0x3c59e2b1	0.013298676
42	0x3c942755	0.018085161
43	0x3e02db64	0.12779003
44	0xbda55f11	-0.08074773
45	0x3e13d47e	0.14436528
46	0xbb3fda82	-0.0029274528
47	0x3d6ff690	0.05858475
48	0x3dd72a11	0.105060704
49	0xbc8788d2	-0.016544733
50	0xbd1755fc	-0.036947235
51	0x3df47076	0.11935513
52	0x3dbcce81	0.09219075
53	0x3ae0631c	0.0017119381
54	0xbd667989	-0.05626825
55	0xbc1905ce	-0.009339763
56	0x3e6beec8	0.23040307
57	0xbd36e845	-0.044655103
58	0xbd9341d9	-0.07190294
59	0x3d09b81a	0.03362284
60	0x3d981cb6	0.07427351
61	0x3d20af95	0.039229948
62	0x3d3e4734	0.046454623
63	0x3ba8aaa6	0.005147296
64	0x3e572579	0.21010388
65	0x3e24d6ed	0.16097613
66	0xba49a0b2	-0.0007691487
67	0x3c1962d4	0.009361941
68	0xbd96969b	-0.073529445
69	0xbd63d6dd	-0.05562483
70	0x3d5a0625	0.053228516
71	0xbbbff976	-0.0058585955
72	0x3cbfd976	0.023419123
73	0x3daf6e0a	0.0856591
74	0xbb359a8e	-0.002771053
75	0x3d9ef1e9	0.077609845
76	0x3d482da4	0.04887165
77	0xbb9a9f34	-0.0047186855
78	0xbd945ad5	-0.07243887
79	0xbca08b6c	-0.019597732
80	0xbd493667	-0.049124148
81	0x3dfb310a	0.12265213
82	0x3c84ec85	0.016226063
83	0xbd367496	-0.04454478

weight f4 [10, 84]
0	0xbe419017	-0.18902622
1	0xbe21089a	-0.15725937
2	0x3d3c69b4	0.045999244
3	0xbea5a878	-0.32355094
4	0x3ccd2044	0.0250398
5	0xbd380c59	-0.04493365
6	0x3cf31a65	0.029675672
7	0x3dfa5691	0.122235425
8	0x3d8e5f63	0.06951787
9	0xbd876ef1	-0.06612957
10	0x3ea84fa3	0.32873258
11	0xbdb70e35	-0.08938257
12	0xbe546122	-0.20740178
13	0x3d9cea14	0.07661834
14	0xbd8496b0	-0.06474054
15	0x3cf47270	0.029839724
16	0xbdb94632	-0.09046592
17	0x3e4e4f13	0.20147352
18	0xbddaaecb	-0.1067787
19	0x3e97b443	0.29629716
20	0xbe05c7a5	-0.1306444
21	0x3d9e5321	0.07730699
22	0xbe634e77	-0.221979
23	0xbe0d7ef4	-0.1381796
24	0xbe81db1c	-0.2536248
25	0xbe35c16a	-0.17749563
26	0xbbf912ef	-0.007601134
27	0xbd6d111b	-0.05787764
28	0xbe0302e5	-0.12794073
29	0xbd637520	-0.05553162
30	0x3d963a40	0.07335329
31	0x3e8768f0	0.26447248
32	0xbe2da9b8	-0.16959274
33	0x3e8df60c	0.2772678
34	0xbd63a1b0	-0.05557412
35	0x3e37d8ee	0.17953846
36	0x3d3f6f38	0.046736926
37	0xbe0ad2d8	-0.13556993
38	0x3ed4d711	0.41570333
39	0x3d431a8a	0.04763273
40	0xbdc78fef	-0.0974425
41	0x3e97921f	0.2960367
42	0x3d50bd46	0.050961755
43	0x3ddc4e83	0.107571624
44	0xbcb82ce2	-0.02248234
45	0xbe8657bd	-0.26238814
46	0xbe1ef786	-0.1552411
47	0xbd775dcd	-0.06039219
48	0x3d742545	0.059605855
49	0xbdf15a9d	-0.11784861
50	0x3ea9f8e6	0.33197707
51	0x3e2295c7	0.15877448
52	0x3f02ba23	0.5106527
53	0xbe69ca76	-0.22831139
54	0xbd043f11	-0.032286707
55	0x3bc2081e	0.005921378
56	0x3ec43cff	0.38327786
57	0xbca199b6	-0.019726615
58	0x3e18c4a6	0.14918765
59	0xbdfdd07c	-0.12393281
60	0xbdcbc7ec	-0.099502414
61	0x3e11d2fb	0.14240639
62	0x3e482de5	0.19548757
63	0xbe14c3d5	-0.14527829
64	0xbdcfb813	-0.10142531
65	0x3e1eb2c5	0.15497883
66	0xbd987f06	-0.07446103
67	0xbdbe4d95	-0.09292141
68	0x3e8183d8	0.252959
69	0xbd820b11	-0.06349767
70	0xbe2ad4c8	-0.16682732
71	0x3e4f97b5	0.20272715
72	0xbd84486f	-0.06459128
73	0x3ed53aa8	0.41646314
74	0x3e31c56a	0.17360464
75	0xbd23f56d	-0.04002898
76	0x3e7ed36d	0.2488534
77	0x3c4470b5	0.011989762
78	0x3d6be32f	0.057589706
79	0xbd2ac367	-0.041690256
80	0xbdc639a3	-0.09678962
81	0xbea291b4	-0.31751788
82	0xbd011fa1	-0.031524304
83	0x3e051efb	0.130001
84	0xbe16a609	-0.14711775
85	0xbcd30179	-0.025757538
86	0xbdb1c60f	-0.08680355
87	0xbdf0e4f7	-0.117624216
88	0x3ec8affe	0.3919677
89	0xbdcd8b18	-0.10036296
90	0xbdd06667	-0.10175782
91	0xbd33ab1e	-0.043864362
92	0xbdfd2695	-0.123608746
93	0x3dc377cb	0.09544333
94	0x3e052b27	0.13004743
95	0x3c05e323	0.008171829
96	0xbde8aa0c	-0.11360559
97	0xbd8500c5	-0.064942874
98	0x3e8e2c6d	0.2776827
99	0xbc47a455	-0.012185176
100	0x3cc9020e	0.024537113
101	0xbc691180	-0.014225364
102	0xbdef461b	-0.116832934
103	0x3eaf40ed	0.34229222
104	0x3d961ff8	0.07330316
105	0x3eb53099	0.3538864
106	0xbe656bd4	-0.22404414
107	0x3d6262c8	0.055269986
108	0xbe57066a	-0.2099854
109	0xbe8c8e65	-0.27452388
110	0xbdff9a41	-0.124805935
111	0xbe5436e3	-0.20724063
112	0x3de21368	0.11038858
113	0xbe5aa671	-0.21352555
114	0x3d7459ba	0.059655882
115	0x3d16d3e0	0.036823153
116	0xbced00be	-0.028931018
117	0xbe302c44	-0.17204386
118	0xbd6729c9	-0.056436334
119	0xbe120577	-0.14259897
120	0x3cf47489	0.029840725
121	0x3e80afa0	0.2513399
122	0xbe1c6739	-0.15273751
123	0xbe23f1e2	-0.1601024
124	0x3e1e99da	0.15488377
125	0xbdc147af	-0.09437501
126	0xbd0b4acc	-0.03400688
127	0x3e8b4aec	0.27205598
128	0xbd9a9af4	-0.07549086
129	0xbe480d46	-0.19536313
130	0xbc362ff5	-0.011119832
131	0x3f0e8efb	0.5568692
132	0xbde9e85c	-0.11421272
133	0xbdc3d8c1	-0.09562827
134	0x3c9b0672	0.018923972
135	0xbe52da34	-0.2059105
136	0xbeac5d24	-0.3366481
137	0x3e1cc59e	0.1530976
138	0xbda8720e	-0.08224879
139	0xbda9e95c	-0.08296463
140	0xbef32f92	-0.4749723
141	0x3ee983e4	0.45608437
142	0xbd90a907	-0.070634894
143	0x3dfb5fb6	0.12274115
144	0xbe75dbdd	-0.24009652
145	0x3da10e52	0.078640595
146	0x3e6ab763	0.22921519
147	0xbd3583eb	-0.04431526
148	0x3ca055a1	0.019572081
149	0x3dbcfc76	0.092278406
150	0x3c9a3a5d	0.018826658
151	0xbdd38ef9	-0.10330004
152	0xbe813363	-0.25234517
153	0xbd8fb7ab	-0.07017454
154	0x3ddada4c	0.10686168
155	0x3c95c398	0.018281743
156	0x3e545195	0.20734246
157	0xbed73926	-0.42035788
158	0xbd31af1d	-0.04337989
159	0xbdab0ecc	-0.08352432
160	0xbe3a4103	-0.18188863
161	0xbdd651f1	-0.10464848
162	0xbdd37398	-0.10324782
163	0x3e58bb06	0.21165094
164	0x3daf00bf	0.08545064
165	0xbdf7f6fd	-0.12107656
166	0xbdd153c9	-0.10221059
167	0xbd8e1ca4	-0.069390565
168	0xbe1d3920	-0.15353823
169	0x3ee52b2f	0.4475951
170	0x3de6ba3a	0.11265989
171	0xbd873900	-0.06602669
172	0x3d0bef6d	0.03416388
173	0x3d5d11e4	0.05397214
174	0xbeaf5bf8	-0.34249854
175	0xbca29b68	-0.019849494
176	0xbdb24d0d	-0.087061025
177	0x3c23dee9	0.010001876
178	0x3e65fc53	0.22459535
179	0xbe086407	-0.13319407
180	0x3dff9a4e	0.12480603
181	0x3e3ae4da	0.18251362
182	0x3d6c7142	0.0577252
183	0xbdbe391a	-0.09288235
184	0x3da221ee	0.07916628
185	0xbdc69acb	-0.09697493
186	0xbda037da	-0.07823153
187	0xbe87014a	-0.2636817
188	0x3e57ead0	0.21085668
189	0x3db61f99	0.088927455
190	0x3edfacce	0.43686527
191	0x3cc4e3bb	0.024034372
192	0xbd4faab8	-0.05069992
193	0xbe46a777	-0.1939982
194	0xbdf89198	-0.12137145
195	0xbe915752	-0.28386933
196	0xbce01b8a	-0.027356882
197	0xbe0c4eec	-0.13701981
198	0x3be096c8	0.006853912
199	0xbe26b6dd	-0.16280694
200	0xbdb1496f	-0.086565845
201	0x3d478f8e	0.04872089
202	0xbb9bc731	-0.00475397
203	0x3e2e7bed	0.17039461
204	0x3d58eade	0.05295836
205	0xbc91efc2	-0.01781452
206	0xbe6f5512	-0.23372295
207	0x3e804675	0.25053754
208	0x3cf39657	0.029734774
209	0xbd557a36	-0.052118503
210	0xbdf28534	-0.11841813
211	0xbeb68e96	-0.3565566
212	0x3da05863	0.078293584
213	0x3e348051	0.17627074
214	0xbe0459cc	-0.1292488
215	0xbc6a6d1c	-0.01430824
216	0xbe0620d3	-0.13098459
217	0xbe3eb02f	-0.18621896
218	0xbe07183f	-0.13192843
219	0x3ee52ed0	0.44762278
220	0x3ed7cac8	0.42146897
221	0xbdff6c3b	-0.12471815
222	0xbd7756f3	-0.060385656
223	0x3d9f3a4e	0.077747926
224	0x3ef3aa0c	0.47590673
225	0x3cab38b7	0.020901067
226	0xbdecbd7d	-0.115595795
227	0x3e33ac88	0.17546284
228	0x3e985b49	0.29757145
229	0xbe58a18f	-0.2115538
230	0xbcd22cf8	-0.025656208
231	0xbe3ab932	-0.18234709
232	0x3f03d33d	0.514942
233	0x3e82cc11	0.25546315
234	0xbd52beaa	-0.051451363
235	0xbdb09740	-0.08622599
236	0x3cee3503	0.029078012
237	0xbc1c8e51	-0.009555415
238	0x3db53194	0.08847347
239	0xbe1b046f	-0.1513841
240	0x3eb53008	0.35388207
241	0x3eb7dc84	0.35910428
242	0xbe00f623	-0.12593894
243	0xbe400234	-0.1875084
244	0x3d7f664f	0.06235343
245	0xbe0e25b3	-0.13881569
246	0x3cff485d	0.031162435
247	0xbdb6ebd7	-0.08931702
248	0xbd0db3c9	-0.034595285
249	0xbd9822f3	-0.07428541
250	0x3de3ce94	0.11123386
251	0xbe252e27	-0.16130887
252	0xbe272cf9	-0.1632575
253	0xbe1f6ceb	-0.15568893
254	0xbcd48703	-0.025943285
255	0x3e9946e0	0.29936886

bias f4 [10]
0	0xbe195b40	-0.14976215
1	0xbe978588	-0.29594064
2	0x3e272aba	0.16324893
3	0x3dacb66c	0.08433232
4	0xbd9594ef	-0.073037975
5	0xbeab969d	-0.33513346
6	0x3edd27c0	0.4319439
7	0x3db4c92b	0.08827432
8	0x3e499fd1	0.19689871
9	0xbe3d2fee	-0.18475315
