sign_lang_net.pth (torch, 203945 bytes, 18 tensors)

layer1.0.weight f4 [8, 1, 3, 3]
-0.3072475 0.28420568 -0.03272178 -0.2353377 0.21183617 0.11040388 0.21031415 -0.062058773
-0.17258535 0.00091361575 -0.010588103 0.38253173 -0.25980747 -0.28322223 0.17497833 -0.017391441
-0.03860956 0.009450671 0.3377374 0.038004663 0.0002550374 0.07944886 0.14477454 -0.116939664
0.13596247 0.047653083 0.13193709 0.25075668 0.09492217 -0.28459296 -0.1725978 0.0039417967
0.058995403 -0.22973485 0.029852495 0.2401001 -0.17256966 -0.08617464 0.3348744 -0.30073464
0.21635206 -0.14796677 0.032545444 -0.19405378 -0.15854359 -0.047672987 -0.28816518 -0.042548493
-0.17075069 0.23245013 0.024393536 0.15900438 0.23840876 0.08013602 -0.17875054 -0.08513011
-0.25746945 0.24850918 0.13978463 -0.40393633 -0.07374945 -0.089431606 -0.3529918 -0.18349734
0.014462389 0.21714894 0.05039166 0.30345112 0.267235 -0.34696925 -0.20694585 0.13760798
00000000: 8b4f 9dbe 6883 913e 4607 06bd 5efc 70be
00000010: 95eb 583e 6e1b e23d 985c 573e 5731 7ebd
00000020: 37ba 30be b77f 6f3a b979 2dbc 33db c33e
00000030: 7c05 85be 8102 91be 852d 333e 7f78 8ebc
00000040: 0f25 1ebd fdd6 1a3c ebeb ac3e c7aa 1b3d
00000050: 8ab6 8539 15b6 a23d c73f 143e 107e efbd
00000060: bf39 0b3e e12f 433d 841a 073e 2e63 803e
00000070: 8e66 c23d 2bb6 91be 7abd 30be 302a 813b
00000080: 2aa5 713d 9d3f 6bbe 388d f43c cddc 753e
00000090: 1ab6 30be 547c b0bd a874 ab3e e4f9 99be
000000a0: 658b 5d3e 9a84 17be 5f4e 053d 09b6 46be
000000b0: 4059 22be c044 43bd 638a 93be 5447 2ebd
000000c0: 45d9 2ebe 6807 6e3e f4d4 c73c 0bd2 223e
000000d0: 6d21 743e 5b1e a43d 620a 37be b258 aebd
000000e0: 09d3 83be 3179 7e3e b423 0f3e bed0 cebe
000000f0: f409 97bd eb27 b7bd 57bb b4be bae6 3bbe
00000100: a8f3 6c3c 4b5c 5e3e 7c67 4e3d f25d 9b3e
00000110: 07d3 883e f4a5 b1be 9de9 53be 1be9 0c3e

layer1.0.bias f4 [8]
0.29567367 0.15852351 0.079921894 0.1140257 0.28352877 0.25685975 0.3115766 0.018848922
00000000: 8a62 973e fd53 223e 17ae a33d 4e86 e93d
00000010: af2a 913e 1f83 833e f886 9f3e 0e69 9a3c

layer1.1.weight f4 [8]
1.2290841 1.2467225 1.1212932 1.211286 1.0347017 1.2394947 1.1992611 1.1565299
00000000: a152 9d3f 9a94 9f3f 8986 8f3f 6b0b 9b3f
00000010: 1b71 843f c3a7 9e3f 6381 993f 2c09 943f

layer1.1.bias f4 [8]
0.008169168 0.011713669 0.011305879 -0.0337106 0.01252452 0.16189943 0.12409746 0.012879087
00000000: f9d7 053c b0ea 3f3c 4b3c 393c 2014 0abd
00000010: a533 4d3c f7c8 253e cf26 fe3d ce02 533c

layer1.1.running_mean f4 [8]
2.717443 -6.2241106 103.347786 0.5241412 -63.58557 26.162989 -151.67241 33.35405
00000000: 96ea 2d40 ea2b c7c0 11b2 ce42 1e2e 063f
00000010: a057 7ec2 cd4d d141 23ac 17c3 8c6a 0542

layer1.1.running_var f4 [8]
142.26654 272.3244 957.7676 142.0558 498.50998 201.24323 2128.3003 482.7865
00000000: 3c44 0e43 8629 8843 2071 6f44 490e 0e43
00000010: 4741 f943 443e 4943 ce04 0545 ac64 f143

layer2.0.weight f4 [16, 8, 3, 3]
-0.058720823 -0.26444593 -0.32505548 -0.025988715 -0.15596263 -0.22765225 0.0044147274 -0.052468095
-0.064398915 0.005276504 -0.091809504 -0.16338457 -0.021497497 -0.022450905 -0.2040978 0.17483124
0.052816425 -0.074256346 0.052373827 -0.019617403 0.09085594 -0.086721145 -0.030435158 0.06657028
-0.033220183 -0.059590686 0.07118071 -0.137288 -0.28808194 -0.26133418 -0.11029213 -0.27233014
-0.22944401 -0.07173969 -0.07028175 -0.14301367 0.039706677 -0.04453742 0.0057784156 0.093026005
0.09500249 -0.12646069 0.05703916 -0.023879353 -0.037697326 -0.15903531 0.07650186 -0.06417019
-0.13292551 0.05680933 0.059147693 0.04760669 -0.016922219 -0.13420512 0.066494316 -0.12779126
-0.06473299 0.1100392 -0.009842437 0.0067728297 0.06427218 0.0059138746 0.03138161 0.108133174
-0.04756544 0.10467246 0.01757838 0.004745184 -0.049610652 0.007049597 0.042868927 0.048085313
-0.08187324 -0.098586544 0.029506268 0.13819055 -0.016416768 0.14440392 0.09800744 0.12627336
0.013146662 0.1779515 0.10946761 0.118239254 0.101616934 -0.00041664252 -0.07511205 -0.08122715
-0.18498306 -0.020191045 -0.071113914 -0.07690564 0.19939674 -0.1021593 0.08856295 -0.03443676
-0.07241065 -0.042704966 -0.02740908 -0.059843555 0.006023058 -0.010623398 -0.21821399 -0.21177375
-0.092391334 -0.13695762 -0.03563266 0.094506286 0.13175505 0.07353151 -0.044543646 0.13430743
0.08015804 -0.11663163 -0.0048913383 -0.12382776 -0.088470556 -0.14950155 -0.07819725 -0.02514977
-0.1297493 -0.07741963 0.065965764 0.1792732 0.07665388 0.27058068 0.114131756 -0.028080389
-0.118368015 -0.012861651 0.07429493 -0.07760736 0.07094642 -0.06449011 -0.13900755 0.036267165
0.0869022 0.06374359 -0.08279595 -0.034949888 0.04053242 -0.095275 -0.12253897 -0.06881812
-0.029999686 0.069035135 0.023303274 0.083417214 0.03159879 0.13263012 -0.0056651635 0.042584192
0.25109407 -0.2050385 -0.117228374 0.01643686 -0.105551235 -0.081781566 -0.16411127 0.095661655
0.02045645 -0.019060753 -0.040002935 -0.061382163 0.08589155 0.04614046 -0.047075834 -0.01745598
0.039459772 0.019140573 -0.02172272 -0.035317052 0.008519811 0.00025685065 -0.112158194 -0.15718907
-0.0042299745 0.053990185 -0.071347766 0.07191219 -0.04106803 -0.076231 0.058625434 -0.12085633
-0.02960712 0.03329721 -0.05799963 0.0048141917 -0.0017937332 -0.13045794 -0.12953521 -0.051905148
-0.008695874 -0.06022045 0.08152481 0.057802808 0.02172842 0.1275838 0.031971596 -0.029413072
0.16315156 0.14307989 0.06297414 0.11756918 0.0072359527 -0.10568704 -0.06876869 -0.09431478
-0.15970394 -0.22473252 0.074045345 0.0013660365 -0.15663388 0.1071597 0.15784518 0.17980188
0.020273741 0.13094485 0.19315694 -0.03417903 0.2161661 0.32158393 -0.02780601 0.157825
0.20733155 0.08108234 0.14705957 0.19818799 0.034292273 0.16939479 0.07503061 0.0648094
0.04372762 0.018419106 -0.1027961 0.022823082 -0.008915673 0.055496432 0.080820344 -0.10910259
0.12976994 0.0738008 -0.13676241 -0.026447024 0.119452834 0.10461147 -0.09385526 0.018781872
0.013547101 -0.1291516 0.018511536 -0.06973827 -0.09832199 -0.07864371 -0.04238993 -0.14539675
00000000: 3f85 70bd 7565 87be ac6d a6be 49e6 d4bc
00000010: abb4 1fbe ac1d 69be 6ba9 903b c9e8 56bd
00000020: 94e3 83bd 86e6 ac3b 9f06 bcbd 494e 27be
00000030: 851b b0bc f6ea b7bc 04ff 50be f606 333e
00000040: 0956 583d b613 98bd f085 563d adb4 a0bc
00000050: ae12 ba3d db9a b1bd 2753 f9bc 0056 883d
00000060: e311 08bd 5d15 74bd 31c7 913d 3a95 0cbe
00000070: 7a7f 93be 98cd 85be d7e0 e1bd db6e 8bbe
00000080: 5ff3 6abe 42ec 92bd e1ef 8fbd 2d72 12be
00000090: 78a3 223d df6c 36bd dd58 bd3b 6b84 be3d
000000a0: aa90 c23d e97e 01be e5a1 693d a29e c3bc
000000b0: 8368 1abd 27da 22be 02ad 9c3d a96b 83bd
000000c0: a01d 08be e6b0 683d da44 723d 3cff 423d
000000d0: 77a0 8abc 116d 09be 2c2e 883d b6db 02be
000000e0: bb92 84bd 3b5c e13d 2c42 21bc 9dee dd3b
000000f0: 22a1 833d 2dc9 c13b 018a 003d ed74 dd3d
00000100: fbd3 42bd 845e d63d 8900 903c 7d7d 9b3b
00000110: 8a34 4bbd 4e00 e73b 5497 2f3d 1bf5 443d
00000120: 28ad a7bd bee7 c9bd 21b7 f13c d381 0d3e
00000130: 757c 86bc 9fde 133e 20b8 c83d ce4d 013e
00000140: 1965 573c eb38 363e 8e30 e03d 6c27 f23d
00000150: 8a1c d03d d070 dab9 59d4 99bd 6c5a a6bd
00000160: 336c 3dbe b167 a5bc 2ca4 91bd b480 9dbd
00000170: a92e 4c3e e538 d1bd 7e60 b53d 8f0d 0dbd
00000180: 094c 94bd 67eb 2ebd 0289 e0bc 841e 75bd
00000190: 135d c53b c30d 2ebc 7d73 5fbe 38db 58be
000001a0: ab37 bdbd 9e3e 0cbe 8df3 11bd 838c c13d
000001b0: ccea 063e b097 963d 6673 36bd e387 093e
000001c0: e629 a43d 90dc eebd 8547 a0bb 6999 fdbd
000001d0: 0d30 b5bd ef16 19be e125 a0bd e406 cebc
000001e0: 00dd 04be 2f8e 9ebd 0f19 873d 6593 373e
000001f0: b6fc 9c3d 8d89 8a3e e9bd e93d d808 e6bc
00000200: ee6a f2bd adb9 52bc f127 983d 9cf0 9ebd
00000210: 5b4c 913d 6413 84bd ff57 0ebe e18c 143d
00000220: c8f9 b13d 008c 823d ec90 a9bd 9d27 0fbd
00000230: 5305 263d 8a1f c3bd b6f5 fabd 84f0 8cbd
00000240: e7c1 f5bc 4b62 8d3d 82e6 be3c a5d6 aa3d
00000250: bc6d 013d 31d0 073e d6a2 b9bb c36c 2e3d
00000260: 678f 803e 9df5 51be 6e15 f0bd 98a6 863c
00000270: 3f2b d8bd 187d a7bd c90c 28be 42ea c33d
00000280: 4994 a73c 4c25 9cbc 1eda 23bd dd6b 7bbd
00000290: e9e7 af3d c7fd 3c3d 97d2 40bd d8ff 8ebc
000002a0: 92a0 213d b1cc 9c3c d8f3 b1bc 9da8 10bd
000002b0: ad96 0b3c e9a9 8639 32b3 e5bd 2cf6 20be
000002c0: 999b 8abb d024 5d3d c71e 92bd b346 933d
000002d0: f336 28bd 001f 9cbd 3921 703d 8683 f7bd
000002e0: a28a f2bc a862 083d 0591 6dbd 5ec0 9d3b
000002f0: b31b ebba c496 05be e1a4 04be 7e9a 54bd
00000300: 2479 0ebc b8a9 76bd 7bf6 a63d a3c2 6c3d
00000310: cdff b13c 54a5 023e a6f4 023d aff3 f0bc
00000320: 3411 273e 8983 123e 96f8 803d 1cc8 f03d
00000330: 921b ed3b 7272 d8bd 99d6 8cbd 1b28 c1bd
00000340: 6e89 23be 4820 66be 16a5 973d 940c b33a
00000350: a264 20be 8b76 db3d 2ba2 213e fc1d 383e
00000360: 1e15 a63c 6816 063e efca 453e 50ff 0bbd
00000370: a55a 5d3e a6a6 a43e 6ec9 e3bc e09c 213e
00000380: b94e 543e 7f0e a63d c996 163e cbf1 4a3e
00000390: 0e76 0c3d d475 2d3e a6a9 993d caba 843d
000003a0: bc1b 333d aae3 963c c386 d2bd 79f7 ba3c
000003b0: 0b13 12bc 3a50 633d 2385 a53d 2e71 dfbd
000003c0: 69e2 043e e024 973d 720b 0cbe 6ea7 d8bc
000003d0: b0a3 f43d 8a3e d63d 3037 c0bd 71dc 993c
000003e0: a9f4 5d3c 5140 04be 81a5 973c f0d2 8ebd
000003f0: 0a5d c9bd f40f a1bd 10a1 2dbd e3e2 14be

layer2.0.bias f4 [16]
0.13473983 -0.0045812977 0.1102899 0.12727013 0.016395587 0.052427877 0.054883618 0.055776536
-0.0076612826 0.006012569 0.018453654 0.034735132 0.01592765 -0.10927653 -0.068661354 0.070296146
00000000: 3df9 093e b61e 96bb acdf e13d 1a53 023e
00000010: 0a50 863c 9dbe 563d a5cd 603d f075 643d
00000020: 7f0b fbbb 1605 c53b 1e2c 973c 6d46 0e3d
00000030: b47a 823c 60cc dfbd 539e 8cbd 6df7 8f3d

layer2.1.weight f4 [16]
1.4269074 1.3415765 1.2910507 1.2537278 1.4269466 1.4094623 1.4242538 1.3387616
1.4648201 1.3954271 1.2912772 1.2069607 1.4069202 1.3110173 1.3680487 1.3702363
00000000: e7a4 b63f c7b8 ab3f 2641 a53f 277a a03f
00000010: 30a6 b63f 4369 b43f f34d b63f 8a5c ab3f
00000020: 3a7f bb3f 5b9d b23f 9248 a53f b07d 9a3f
00000030: f615 b43f 6acf a73f 381c af3f e763 af3f

layer2.1.bias f4 [16]
0.17702547 0.13277483 0.18550442 0.17799352 0.055354442 0.06887434 0.10410132 0.06678297
0.1632787 0.11593751 0.08175105 0.13608341 0.15275319 0.11575998 0.07474984 0.06963275
00000000: 2a46 353e 20f6 073e dff4 3d3e ef43 363e
00000010: 57bb 623d fd0d 8d3d 1333 d53d 83c5 883d
00000020: 8832 273e a570 ed3d 186d a73d 7359 0b3e
00000030: 556b 1c3e 9213 ed3d 7216 993d 9d9b 8e3d

layer2.1.running_mean f4 [16]
-0.39914274 -0.204808 -0.32207504 0.20950377 0.17640837 0.05630505 0.019549781 0.2130689
-0.4235363 -0.1427275 0.28977156 -0.48865598 -0.38500673 -0.04725368 0.17542578 0.049958244
00000000: 705c ccbe 30b9 51be 05e7 a4be 2888 563e
00000010: 65a4 343e 20a0 663d dd26 a03c bc2e 5a3e
00000020: c0d9 d8be 2827 12be f05c 943e 1e31 fabe
00000030: 9a1f c5be 138d 41bd d1a2 333e 04a1 4c3d

layer2.1.running_var f4 [16]
0.07127221 0.073634446 0.10915373 0.041536327 0.14049342 0.09871225 0.073357075 0.07076013
0.08785554 0.1129369 0.15908706 0.25841424 0.06628782 0.05922617 0.110703714 0.08933293
00000000: 2af7 913d a8cd 963d fe8b df3d ff21 2a3d
00000010: 82dd 0f3e a629 ca3d 3c3c 963d b0ea 903d
00000020: 9bed b33d 764b e73d b8e7 223e df4e 843e
00000030: e9c1 873d 2497 723d a1b8 e23d 2ff4 b63d

fc1.weight f4 [100, 400]
0.1298557 0.12878533 0.08235541 0.080602586 0.078125164 0.06733253 0.034245197 -0.03502295
-0.041318066 0.08072928 0.042190403 -0.08464806 -0.04037835 -0.14464031 -0.16649438 0.051175058
-0.00069485593 0.036156096 -0.06911194 -0.06714749 0.007538442 0.057307165 0.11918861 0.08317223
0.016022632 0.08049403 -0.037446324 -0.15302716 -0.18909253 -0.055866726 -0.0044695474 -0.053070318
-0.10716199 0.026148224 -0.049392853 -0.06958834 -0.087650165 0.012624681 -0.053240504 0.023018412
-0.065395825 -0.056660026 0.033938408 -0.018694934 0.03592223 -0.0113766985 -0.07258137 -0.09902615
0.035421252 -0.051893193 0.0069614793 -0.014953082 -0.040402196 -0.04252799 0.037977953 -0.00033941897
-0.015117958 0.07003814 0.027628347 0.036633264 -0.00044608896 0.012729368 0.006272634 0.09504552
-0.1426881 0.07403939 0.042172827 -0.10214561 -0.022617016 0.015370707 -0.070161015 0.048841726
0.045069773 -0.03501538 -0.05076666 -0.013858072 0.047227293 -0.019574504 0.08076771 -0.04363795
0.11950178 0.14369231 0.011091357 0.03583194 0.099309854 0.09615697 0.12452559 0.07433894
0.086728245 0.13691553 0.004760487 0.072008364 -0.0037240542 0.03702751 0.07681638 0.02691266
0.11836381 -0.007511237 -0.0050884956 0.012826642 0.088377036 0.0029644559 0.15703449 -0.056155115
0.106496714 -0.003021442 0.044715468 0.077392004 0.059317965 0.008160903 -0.091280185 -0.05540154
-0.1470499 0.027959995 -0.027178437 -0.06008386 -0.08387793 -0.15609497 -0.1173119 0.07970754
-0.16732477 -0.011623943 -0.02482798 -0.120437615 0.055424694 0.012301793 -0.15822695 -0.21676008
-0.101052865 -0.14047642 0.010133808 -0.031135466 -0.041502614 -0.06583323 -0.037918687 -0.064280614
-0.09229242 -0.056919664 0.023164619 0.010768683 0.062146947 0.009662669 -0.13407582 -0.013347231
0.01194822 -0.063930094 0.014194172 -0.1081123 -0.050086018 -0.012940558 -0.0106463 0.015573474
-0.054157007 -0.11512935 -0.03784156 0.10708671 0.118864805 0.0045691365 0.008759516 -0.104382835
0.1520201 0.05016665 -0.036065176 -0.033097446 0.04837486 0.13874067 -0.024163987 -0.029035285
0.009334978 -0.067069076 -0.07302002 0.0055810213 0.01952722 -0.05517239 -0.065378524 0.040518206
-0.008474932 -0.08280905 -0.03629953 0.044497956 0.0775366 -0.03447404 -0.08937462 -0.040420044
-0.100166336 -0.049046088 -0.08791574 -0.037827544 0.05129495 0.04515369 -0.0481839 0.047742818
-0.009501788 0.049825333 -0.110299006 0.070370354 -0.015917014 -0.10150199 -0.13453357 -0.046838418
0.07337659 0.099848196 0.03531158 0.02413957 0.2514414 0.04686417 -0.08414109 0.043541573
-0.062861025 -0.116954304 0.051518112 -0.13559747 -0.15616359 -0.09673681 -0.011084728 0.07582512
0.07546121 0.15883075 0.1317113 0.035380084 0.072245754 0.033783223 0.00341068 0.018015731
0.010032639 -0.036275398 -0.04675824 0.042008836 -0.06333675 0.13249367 -0.023866666 -0.023339614
-0.0048609846 -0.04052683 -0.15076345 -0.042725377 -0.01682039 -0.016713344 0.0077828104 -0.024355501
-0.11771332 -0.028173143 0.00026948925 9.338587e-05 -0.025213247 -0.08032979 -0.005136461 -0.066385336
0.04123734 -0.0062718587 -0.004598206 0.023613397 0.048870213 0.04367318 0.047514196 0.08352365
00000000: e5f8 043e 4de0 033e f4a9 a83d f812 a53d
00000010: 1600 a03d a3e5 893d b144 0c3d 3a74 0fbd
00000020: 223d 29bd 6555 a53d d8cf 2c3d f65b adbd
00000030: c563 25bd 971c 14be 817d 2abe f09c 513d
00000040: fe26 36ba 6a18 143d 908a 8dbd a084 89bd
00000050: 0905 f73b ebba 6a3d 2819 f43d 3456 aa3d
00000060: e541 833c 0eda a43d 5161 19bd 27b3 1cbe
00000070: 79a1 41be 82d4 64bd 4875 92bb 4360 59bd
00000080: bf77 dbbd cd34 d63c 2950 4abd 5584 8ebd
00000090: ee81 b3bd c0d7 4e3c b712 5abd 1c91 bc3c
000000a0: 3fee 85bd 5814 68bd 0003 0b3d 1e26 99bc
000000b0: 3023 133d 5565 3abc 8ba5 94bd 39ce cabd
000000c0: e015 113d f58d 54bd 1f1d e43b c6fd 74bc
000000d0: c67c 25bd d431 2ebd c58e 1b3d 0bf4 b1b9
000000e0: 50b1 77bc 2870 8f3d d854 e23c c30c 163d
000000f0: 0ce1 e9b9 d78e 503c ab8a cd3b 3aa7 c23d
00000100: d41c 12be f7a1 973d 6abd 2c3d b831 d1bd
00000110: 5247 b9bc 6bd5 7b3c 94b0 8fbd 430e 483d
00000120: 159b 383d 496c 0fbd b4f0 4fbd f80c 63bc
00000130: 6871 413d b65a a0bc 8b69 a53d b5bd 32bd
00000140: 59bd f43d 1424 133e 86b8 353c 83c4 123d
00000150: f762 cb3d f2ed c43d 4607 ff3d 043f 983d
00000160: 949e b13d 9633 0c3e dcfd 9b3b 1f79 933d
00000170: 430f 74bb 29aa 173d e851 9d3d f077 dc3c
00000180: ba68 f23d d320 f6bb 65bd a6bb d626 523c
00000190: 05ff b43d 5147 423b a6cd 203e e802 66bd
000001a0: f31a da3d 6303 46bb 9127 373d b37f 9e3d
000001b0: 65f7 723d 4fb5 053c 1bf1 babd baec 62bd
000001c0: 4094 16be 5c0c e53c 50a5 debc 7e1a 76bd
000001d0: 31c8 abbd 5cd7 1fbe 3941 f0bd b53d a33d
000001e0: 2f57 2bbe 5a72 3ebc 0c64 cbbc ffa7 f6bd
000001f0: 0105 633d 768d 493c 3f06 22be 5bf6 5dbe
00000200: cef4 cebd 0dd9 0fbe 4508 263c ce0f ffbc
00000210: a5fe 29bd 93d3 86bd a050 1bbd 8ea5 83bd
00000220: cf03 bdbd 9824 69bd bac3 bd3c 216f 303c
00000230: cc8d 7e3d 2c50 1e3c 2c4b 09be 58ae 5abc
00000240: 78c2 433c c8ed 82bd ac8e 683c fb69 ddbd
00000250: ff26 4dbd a204 54bc d26d 2ebc e227 7f3c
00000260: bdd3 5dbd f0c8 ebbd c0ff 1abd 4750 db3d
00000270: 646f f33d b2b8 953b 1384 0f3c abc6 d5bd
00000280: 28ab 1b3e 8c7b 4d3d 14b9 13bd 3091 07bd
00000290: b824 463d 0912 0e3e 8ef3 c5bc 68db edbc
000002a0: bcf1 183c 835b 89bd 858b 95bd 00e1 b63b
000002b0: 8cf7 9f3c 72fc 61bd 2de5 85bd 6bf6 253d
000002c0: 71da 0abc cb97 a9bd d1ae 14bd 7d43 363d
000002d0: 82cb 9e3d a734 0dbd 0a0a b7bd 7d8f 25bd
000002e0: 0224 cdbd 8de4 48bd 2b0d b4bd 0ef1 1abd
000002f0: a71a 523d 13f3 383d 7b5c 45bd f98d 433d
00000300: 63ad 1bbc a615 4c3d 72e4 e1bd 551e 903d
00000310: 6664 82bc 46e0 cfbd 2bc3 09be a4d9 3fbd
00000320: 7746 963d 367d cc3d e0a2 103d 59c0 c53c
00000330: edbc 803e a5f4 3f3d 2a52 acbd a658 323d
00000340: 48bd 80bd bd85 efbd a804 533d 10da 0abe
00000350: 59e9 1fbe f31d c6bd b89c 35bc 334a 9b3d
00000360: 688b 9a3d 87a4 223e 54df 063e b5ea 103d
00000370: 95f5 933d 4760 0a3d b785 5f3b ba95 933c
00000380: f05f 243c 8395 14bd 9185 3fbd 7511 2c3d
00000390: b3b6 81bd 6cac 073e 0784 c3bc b832 bfbc
000003a0: e548 9fbb 76ff 25bd bc61 1abe ce00 2fbd
000003b0: eaca 89bc 6cea 88bc f206 ff3b 3085 c7bc
000003c0: ae13 f1bd 5dcb e6bc 3c4a 8d39 28d8 c338
000003d0: 038c cebc f283 a4bd c24f a8bb 09f5 87bd
000003e0: 7ce8 283d 2a84 cdbb 8cac 96bb e270 c13c
000003f0: 222c 483d a6e2 323d 3f9e 423d 730e ab3d

fc1.bias f4 [100]
0.06908623 -0.04588386 0.07739014 -0.09810082 -0.07745787 0.04604438 0.0056373845 0.019194001
0.0296295 0.014849297 0.03604381 -0.07923616 -0.08439819 -0.015729051 -0.11415759 0.056139156
0.097353466 0.10708736 0.021679392 0.009214152 0.060711246 -0.010601019 -0.011894416 0.11279354
-0.018513577 0.030001236 0.010127542 -0.038099714 0.026769113 0.01039952 -0.07843781 -0.022676528
-0.0784674 -0.010412567 -0.034914166 0.0065945545 0.15060592 0.044269916 0.019821616 0.0072805155
0.035965815 0.014740553 0.051404946 -0.04193316 0.03306278 0.020743959 -0.02628119 0.017870035
0.013212144 0.06745402 -0.08224789 0.0173301 0.0007349145 0.006776339 0.04113752 -0.01676903
-0.045171462 0.10892602 -0.014876756 0.039830558 0.0027114875 0.014677569 -0.03166317 -0.01717872
-0.113890916 0.032497056 0.02202018 0.02837982 0.062472787 0.0034191078 0.021744538 0.011825781
-0.04091049 -0.072224446 -0.119401604 0.05819787 -0.0067595537 -0.056321338 -0.101487726 0.13895068
0.011752497 0.0066939397 0.021815378 0.06559224 -0.043470643 0.0306325 -0.012149624 -0.03376153
-0.14122297 0.11427682 0.0030405554 0.09185439 0.14295106 -0.060227778 -0.1063244 0.019727964
0.026620371 0.065831244 -0.071979895 0.020044725
00000000: 157d 8d3d b7f0 3bbd b97e 9e3d 15e9 c8bd
00000010: 3ba2 9ebd 0899 3c3d cfb9 b83b bd3c 9d3c
00000020: 91b9 f23c 774a 733c ada2 133d 9146 a2bd
00000030: f5d8 acbd 36da 80bc 74cb e9bd 2cf2 653d
00000040: 4161 c73d 9e50 db3d fb98 b13c f4f6 163c
00000050: 5bac 783d e5af 2dbc cce0 42bc 4d00 e73d
00000060: c9a9 97bc 27c5 f53c fded 253c 720e 1cbd
00000070: e64a db3c c062 2a3c 01a4 a0bd 20c4 b9bc
00000080: 84b3 a0bd 7999 2abc 2802 0fbd 2217 d83b
00000090: 7038 1a3e 5f54 353d f160 a23c 6491 ee3b
000000a0: e450 133d 5c82 713c fe8d 523d 1bc2 2bbd
000000b0: d66c 073d 3cef a93c a64b d7bc 2e64 923c
000000c0: c077 583c 5525 8a3d 9571 a8bd dbf7 8d3c
000000d0: 47a7 403a 0d0c de3b d17f 283d 345f 89bc
000000e0: b605 39bd 9b14 df3d a3bd 73bc 5e25 233d
000000f0: 36b3 313b 307a 703c 3db1 01bd 63ba 8cbc
00000100: a43f e9bd a21b 053d aa63 b43c cc7c e83c
00000110: 77e3 7f3d 1c13 603b 9a21 b23c ecc0 413c
00000120: c291 27bd 69ea 93bd d488 f4bd e460 6e3d
00000130: 3f7f ddbb 34b1 66bd ccd8 cfbd 1649 0e3e
00000140: 8c8d 403c d658 db3b 2ab6 b23c 3955 863d
00000150: 460e 32bd 02f1 fa3c 370f 47bc 8849 0abd
00000160: c19c 10be f709 ea3d 0e44 473b 281e bc3d
00000170: c361 123e 67b1 76bd 9bc0 d9bd 8a9c a13c
00000180: f712 da3c 88d2 863d 326a 93bd d634 a43c

fc2.weight f4 [64, 100]
0.115222745 -0.089671925 -0.029210119 -0.06255961 -0.021337219 0.03064969 -0.15953584 -0.10925974
0.11636487 -0.15461336 -0.041695233 -0.011040716 0.0051062233 -0.15234086 0.071303375 -0.14483802
-0.20639433 -0.13566588 0.119709834 -0.07257404 0.10076032 -0.15901694 -0.0077217203 -0.07783599
-0.17233709 0.110073544 0.026566487 -0.0024383443 0.061991014 -0.06112971 0.12670623 -0.18722017
0.03044479 0.099000774 -0.001372535 -0.0916077 -0.14630589 0.01072069 -0.15930249 -0.18116759
-0.162647 0.17341626 -0.0070740487 0.032693967 0.015283389 -0.0536017 0.021757534 0.030696768
-0.100967094 0.08255536 -0.042127017 0.104121864 0.12153407 0.025129106 0.2200856 -0.005920538
0.023556132 0.038707778 -0.09485459 0.042690128 0.047001358 -0.14465375 -0.09632825 0.07560255
0.052440368 -0.10121971 0.08843252 -0.12290915 0.036927834 -0.09564615 0.07388829 0.082069315
-0.121558085 0.080602854 -0.042651426 -0.036403313 0.020472893 -0.003792937 0.0359783 -0.14924243
0.1519537 -0.052911643 -0.14163484 -0.10776815 0.10862648 -0.19253545 -0.05388963 0.10152972
0.076128826 0.13098477 0.10270119 -0.26208088 -0.15439901 -0.051433478 -0.13169265 0.12580268
0.0629868 0.105734415 -0.118696325 0.0903501 -0.0032833784 0.027792703 0.11921645 -0.038670763
-0.13778102 0.08465974 -0.093242764 0.0763174 -0.10504267 0.061946057 0.14390878 -0.1699662
0.19251142 -0.1097364 0.021318505 0.0063025416 0.076828934 0.19670768 0.015072475 -0.07536724
-0.0075169345 0.13576171 0.129006 0.07791642 -0.25455046 0.15559006 0.013804724 -0.03157917
0.17000422 0.14018981 0.042126372 0.1507724 0.10377041 -0.03235994 0.11776246 -0.00096580887
0.038186442 0.15782224 0.019966966 0.06151426 -0.0009633075 0.25866073 0.20158346 0.08748036
0.08427386 0.023260498 -0.047494985 0.04561179 -0.020912524 0.1287695 -0.048535585 -0.02945982
0.1824063 0.11279905 0.13751712 -0.16591439 -0.14153542 0.23961781 0.023015004 0.11846786
-0.17652631 0.14664777 -0.17947142 -0.05918755 -0.25283015 -0.16001396 0.22130373 0.00821987
-0.0026254354 0.20916016 -0.029056123 -0.18525402 -0.21626265 -0.036445912 -0.06330396 -0.13213912
0.09272211 0.021682676 -0.07466238 0.24842376 0.087280236 -0.037586167 -0.042130303 -0.04019879
0.07398894 -0.09772932 -0.041927956 0.053155232 0.12872417 0.32644233 0.008934414 -0.047223125
0.02234288 -0.17570429 -0.079873934 0.13604037 -0.09182884 0.18763135 -0.066681765 0.023905702
0.07727333 -0.22938676 0.0134011805 -0.19552323 -0.08055388 0.056044035 -0.05472187 0.16397917
-0.12572637 0.075583264 0.009402292 0.11238325 -0.07904998 0.19138156 0.04434955 0.04424822
-0.061482225 0.12802123 0.21990745 -0.10715688 -0.12030637 0.083462305 0.0426631 -0.10816408
-0.09306051 -0.056172352 0.050020196 0.08262842 0.05301099 0.027146352 0.048571374 -0.113918215
0.24682792 -0.066095866 -0.13390006 -0.052742206 -0.073604725 0.14528146 0.027079388 0.32854968
-0.06933934 -0.035742417 -0.018880172 0.15160528 0.23297855 0.009232443 0.0100711025 0.12453592
0.104806475 -0.038078494 -0.026972761 -0.06683999 0.19098921 0.0023775701 -0.015802193 -0.20070009
00000000: e7f9 eb3d eaa5 b7bd 0f4a efbc 411f 80bd
00000010: 64cb aebc 0f15 fb3c 5d5d 23be 92c3 dfbd
00000020: b450 ee3d f752 1ebe 9fc8 2abd 1fe4 34bc
00000030: 1b52 a73b 3eff 1bbe 8107 923d 6b50 14be
00000040: 0959 53be ffeb 0abe 6e2a f53d b3a1 94bd
00000050: 6d5b ce3d 56d5 22be 7c06 fdbb 7a68 9fbd
00000060: 2279 30be 3d6e e13d f6a1 d93c a1cc 1fbb
00000070: 4aea 7d3d 2663 7abd 47bf 013e a5b6 3fbe
00000080: 5a67 f93c ebc0 ca3d a2e6 b3ba d19c bbbd
00000090: 36d1 15be d5a5 2f3c 3120 23be ff83 39be
000000a0: ef8c 26be 0894 313e 6ccd e7bb 1cea 053d
000000b0: 2e67 7a3c 758d 5bbd db3c b23c ca77 fb3c
000000c0: d6c7 cebd c912 a93d 618d 2cbd d83d d53d
000000d0: dbe6 f83d 8edb cd3c 1f5e 613e 1301 c2bb
000000e0: caf8 c03c 0c8c 1e3d 2043 c2bd d8db 2e3d
000000f0: 7f84 403d 1d20 14be bf47 c5bd 82d5 9a3d
00000100: b6cb 563d 484c cfbd 1c1c b53d cbb7 fbbd
00000110: a441 173d 21e2 c3bd be52 973d f513 a83d
00000120: 72f3 f8bd 1c13 a53d 43b3 2ebd a41b 15bd
00000130: c5b6 a73c ec92 78bb fb5d 133d 02d3 18be
00000140: c099 1b3e e1b9 58bd b908 11be 8cb5 dcbd
00000150: 8f77 de3d 0328 45be 5fbb 5cbd d0ee cf3d
00000160: 6ee9 9b3d df20 063e 0055 d23d 772f 86be
00000170: c61a 1ebe e9ab 52bd 70da 06be 6bd2 003e
00000180: 39ff 803d 498b d83d 0f17 f3bd 7909 b93d
00000190: f32d 57bb 86ad e33c c127 f43d 3c65 1ebd
000001a0: 7816 0dbe 1662 ad3d 10f6 bebd 4c4c 9c3d
000001b0: 9d20 d7bd 26bb 7d3d d35c 133e 9f0b 2ebe
000001c0: b721 453e 7abd e0bd 25a4 ae3c 8d85 ce3b
000001d0: 7d58 9d3d bd6d 493e 8bf2 763c 245a 9abd
000001e0: 9e50 f6bb 1e05 0b3e 261a 043e a592 9f3d
000001f0: 7054 82be 0053 1f3e 362d 623c 2959 01bd
00000200: 9615 2e3e eb8d 0f3e b48c 2c3d 1464 1a3e
00000210: 9585 d43d db8b 04bd 722d f13d 562e 7dba
00000220: 6369 1c3d 279c 213e c391 a33c 60f6 7b3d
00000230: 7986 7cba 2e6f 843e e56b 4e3e e728 b33d
00000240: c697 ac3d cd8c be3c 1a8a 42bd 6ed3 3a3d
00000250: be50 abbc 27dc 033e 40cd 46bd b855 f1bc
00000260: b8c8 3a3e 3003 e73d 4ad1 0c3e 76e5 29be
00000270: a9ee 10be 5f5e 753e f689 bc3c 479f f23d
00000280: 50c3 34be d52a 163e 5bc7 37be a56e 72bd
00000290: f472 81be b3da 23be 729d 623e a2ac 063c
000002a0: 7f0f 2cbb 152e 563e 1b07 eebc 3bb3 3dbe
000002b0: f573 5dbe 4f48 15bd 82a5 81bd 7a4f 07be
000002c0: 17e5 bd3d de9f b13c 97e8 98bd cc62 7e3e
000002d0: fbbf b23d f4f3 19bd d390 2cbd 7da7 24bd
000002e0: 8387 973d 4f26 c8bd a6bc 2bbd 4db9 593d
000002f0: 45d0 033e 7323 a73e a661 123c 096d 41bd
00000300: 6a08 b73c d3eb 33be f294 a3bd 2b4e 0b3e
00000310: c210 bcbd 6f22 403e 7390 88bd e4d5 c33c
00000320: 7b41 9e3d 5de4 6abe a090 5b3c 3e37 48be
00000330: 6ff9 a4bd 6e8e 653d 0a24 60bd 28ea 273e
00000340: 6abe 00be 66cb 9a3d 120c 1a3c 3029 e63d
00000350: f5e4 a1bd 87f9 433e e0a7 353d 9f3d 353d
00000360: c9d4 7bbd ff17 033e 6b2f 613e 1175 dbbd
00000370: 3063 f6bd 49ee aa3d 81bf 2e3d 2185 ddbd
00000380: 8296 bebd fb14 66bd fae1 4c3d 1739 a93d
00000390: 0d22 593d 0762 de3c c7f2 463d f44d e9bd
000003a0: 75c0 7c3e 455d 87bd 191d 09be 3608 58bd
000003b0: 13be 96bd aac4 143e 98d5 dd3c aa37 a83e
000003c0: c901 8ebd a466 12bd 97aa 9abc 6a3e 1b3e
000003d0: ee91 6e3e ac43 173c 4401 253c b00c ff3d
000003e0: c7a4 d63d 32f8 1bbd fbf5 dcbc 68e3 88bd
000003f0: ad92 433e 02d1 1b3b 9a73 81bc 5384 4dbe

fc2.bias f4 [64]
-0.10314173 -0.008349207 0.008094487 0.02547043 -0.094725974 -0.06847252 0.032993883 0.09660352
0.0911766 0.01325931 -0.046843372 0.07731128 0.08543022 0.11474463 0.13051493 -0.15858133
-0.10345306 0.0065994016 0.06424202 -0.05136379 0.05446562 0.002081605 0.15062276 -0.12029348
0.04259375 0.035070542 0.05554241 0.09019454 -0.16513823 -0.016948685 0.004254304 0.03619965
-0.07210199 -0.037621137 -0.09778161 0.005600325 -0.046179358 -0.0983331 -0.08883226 0.10209714
-0.03852556 -0.04391717 0.11898178 0.047659334 0.16514848 0.078191616 0.05804871 -0.023487667
0.07646115 0.17263082 -0.062330004 -0.021661649 -0.05992203 -0.009928177 -0.062056668 -0.104574166
0.19033365 -0.10388682 0.05356765 0.09731393 -0.030546663 0.06024068 0.016284283 0.066548534
00000000: f93b d3bd 1dcb 08bc bd9e 043c 5da7 d03c
00000010: b1ff c1bd 523b 8cbd 9824 073d 11d8 c53d
00000020: ccba ba3d 943d 593c d6de 3fbd 6055 9e3d
00000030: 0af6 ae3d 3cff ea3d b5a5 053e 2563 22be
00000040: 33df d3bd cb3f d83b 5291 833d d662 52bd
00000050: 5817 5f3d 896b 083b da3c 1a3e 6e5c f6bd
00000060: c976 2e3d 21a6 0f3d 7080 633d eab7 b83d
00000070: ff19 29be f8d7 8abc b067 8b3b 1646 143d
00000080: 35aa 93bd 9f18 1abd ba41 c8bd ee82 b73b
00000090: 9126 3dbd dd62 c9bd b0ed b5bd 4e18 d13d
000000a0: facc 1dbd 7ee2 33bd b8ac f33d 6f36 433d
000000b0: af1c 293e ed22 a03d 7cc4 6d3d 3569 c0bc
000000c0: aa97 9c3d 22c6 303e bf4d 7fbd c573 b1bc
000000d0: cd70 75bd cba9 22bc 222f 7ebd fb2a d6bd
000000e0: d3e6 423e 9dc2 d4bd c169 5b3d 874c c73d
000000f0: ff3c fabc eebe 763d 9e66 853c 994a 883d

fc3.weight f4 [25, 64]
-0.22336271 0.12321278 -0.11554478 0.17400526 0.03186128 -0.37606317 -0.1345716 0.003115175
0.05340535 -0.23633523 0.01934146 -0.04499037 -0.28193596 0.1452551 0.019430593 -0.08799222
-0.082900584 0.021143008 -0.03884864 -0.26424217 -0.11331126 -0.08744706 -0.104518026 0.20879695
-0.23964834 -0.1479024 -0.031592958 0.15002562 -0.10886279 0.079824634 0.15058239 -0.10714508
-0.25847223 -0.11915426 -0.0055404566 -0.07596384 -0.07301087 -0.06957953 -0.18437976 0.13626711
0.024271658 0.12386541 -0.17627937 -0.1932563 0.1044893 -0.09764439 -0.24445462 -0.10745096
-0.18868284 0.033826932 -0.030366443 0.013102602 -0.34971753 0.22787416 -0.056325648 0.05761546
0.017539188 0.011513434 -0.33279926 0.2695295 -0.30331314 0.08311891 -0.021544896 0.12337356
-0.06888881 -0.09763042 -0.10876456 -0.05038166 0.029223014 -0.29509386 -0.13881233 -0.11941837
-0.2094428 -0.25339252 0.04844032 0.10707634 -0.08652166 0.25916797 0.23787454 -0.3715303
0.2143968 -0.09381756 0.043601565 -0.18435204 -0.029237755 0.056219887 0.17953114 -0.22923216
0.20330074 -0.06720588 -0.31240174 -0.20026903 -0.17345777 -0.2185782 0.11040586 -0.24907213
0.11337395 0.037015624 -0.015876781 0.11034743 -0.25472596 -0.069870524 -0.118641794 -0.16963693
-0.01512038 -0.184009 -0.072481565 0.17689596 0.00024211977 0.117057726 -0.06603042 0.2061914
0.0485268 -0.2098561 -0.28071752 0.032611635 0.06261119 -0.3153866 -0.24900323 -0.30451113
0.19769321 -0.10474372 0.08645113 0.15475948 0.06531401 0.044989705 -0.34843242 0.23501195
-0.29543144 -0.11117987 -0.21926616 0.16252427 -0.06669603 0.13216567 0.14182246 0.29724178
-0.23453642 -0.38883156 -0.10396438 -0.14329223 -0.07386487 0.119221136 -0.20255265 0.16025531
-0.10512174 -0.04678479 -0.06365688 -0.1533457 0.13915426 0.07269595 -0.30425462 -0.17577206
0.10528539 -0.17299485 -0.06020901 0.06428692 0.052701887 0.020425102 0.10416658 -0.30736303
-0.008873137 0.18629111 0.12132971 0.055790994 0.055645727 0.05154848 0.24191236 0.028561603
-0.0926164 -0.0135816345 0.17236134 0.10483304 -0.0547518 -0.3079934 0.14182895 -0.18380821
0.08940337 0.020383608 0.07112279 -0.20590535 0.0810806 0.03617562 0.2515199 0.1172244
0.028416498 -0.22963357 -0.02828696 -0.07340088 -0.09231908 -0.23872949 -0.14980969 -0.24359024
-0.12166022 -0.083108395 0.018700914 0.15761054 -0.052438356 0.26315263 -0.17228626 -0.025648018
-0.050469402 0.12031987 -0.06270239 0.14526156 -0.06870455 0.01904252 -0.00090429897 0.054561093
0.27383286 -0.057308704 0.10162404 0.11888811 0.14531049 -0.38382915 0.03132957 0.17500488
-0.0117374845 -0.15088655 -0.18675566 -0.03187963 0.22320534 -0.030746246 -0.14924346 -0.080850765
0.066348724 -0.18549481 0.13243154 0.08028196 -0.27618206 -0.20691155 -0.23370503 -0.257704
-0.2802202 -0.0597464 -0.09629089 0.012698581 0.030091368 0.018850056 -0.021246716 0.115775645
-0.1735973 -0.17202158 0.15502712 -0.5039807 0.15570381 -0.14263892 -0.19534817 -0.17114072
-0.019595925 -0.1085704 0.017699288 0.032087393 0.1506267 0.04157704 0.21931876 0.060022794
00000000: 32b9 64be fb56 fc3d bea2 ecbd 6f2e 323e
00000010: f980 023d 5a8b c0be 23cd 09be f727 4c3b
00000020: 91bf 5a3d dd01 72be fb71 9e3c d247 38bd
00000030: e959 90be c1bd 143e e82c 9f3c 4435 b4bd
00000040: c8c7 a9bd 1a34 ad3c c01f 1fbd c04a 87be
00000050: bc0f e8bd 7217 b3bd 8c0d d6bd dece 553e
00000060: 6066 75be ba73 17be 9e67 01bd 51a0 193e
00000070: 74f3 debd 197b a33d 4532 1a3e e16e dbbd
00000080: 7956 84be 2607 f4bd b88c b5bb ee92 9bbd
00000090: b986 95bd b67f 8ebd 0cce 3cbe 9b89 0b3e
000000a0: 5bd5 c63c 26ad fd3d 9482 34be fbe4 45be
000000b0: 7cfe d53d c8f9 c7bd 5052 7abe 400f dcbd
000000c0: 1336 41be 1c8e 0a3d 0cc3 f8bc 4cac 563c
000000d0: 2d0e b3be d857 693e b9b5 66bd 30fe 6b3d
000000e0: 58ae 8f3c d8a2 3c3c aa64 aabe c5ff 893e
000000f0: dc4b 9bbe 3f3a aa3d ec7e b0bc 47ab fc3d
00000100: 9415 8dbd 75f2 c7bd f4bf debd 005d 4ebd
00000110: 1a65 ef3c 8b16 97be d224 0ebe 9e91 f4bd
00000120: 2c78 56be aabc 81be 5b69 463d d74a db3d
00000130: 4532 b1bd aab1 843e 6295 733e 3839 bebe
00000140: d68a 5b3e 6c23 c0bd 8e97 323d c8c6 3cbe
00000150: 0484 efbc d346 663d 03d7 373e d6bb 6abe
00000160: 122e 503e 3da3 89bd 1ff3 9fbe 5313 4dbe
00000170: ea9e 31be f7d2 5fbe 781c e23d c40c 7fbe
00000180: 9a30 e83d b29d 173d 0610 82bc d5fd e13d
00000190: 716b 82be 4718 8fbd 78fa f2bd 4eb5 2dbe
000001a0: 78bb 77bc db6c 3cbe 3771 94bd 3724 353e
000001b0: 88e1 7d39 f6bb ef3d f53a 87bd d723 533e
000001c0: 0ac4 463d 84e4 56be 35ba 8fbe c793 053d
000001d0: 4c3a 803d 5a7a a1be b4fa 7ebe e2e8 9bbe
000001e0: 1770 4a3e e083 d6bd 4a0d b13d 4579 1e3e
000001f0: 5ac3 853d 2047 383d bc65 b2be f9a6 703e
00000200: ca42 97be 46b2 e3bd 4f87 60be c36c 263e
00000210: ee97 88bd 7056 073e e839 113e 1330 983e
00000220: 512a 70be ee14 c7be 47eb d4bd 33bb 12be
00000230: 7746 97bd 362a f43d f669 4fbe f819 243e
00000240: 114a d7bd 68a1 3fbd 8a5e 82bd a806 1dbe
00000250: 747e 0e3e 9de1 943d 43c7 9bbe 97fd 33be
00000260: de9f d73d 9025 31be b99d 76bd dca8 833d
00000270: efdd 573d 8b52 a73c 4a55 d53d b05e 9dbe
00000280: a260 11bc 19c3 3e3e b67b f83d 1985 643d
00000290: c6ec 633d 8024 533d e0b7 773e 06fa e93c
000002a0: abad bdbd 8185 5ebc 7e7f 303e b4b2 d63d
000002b0: 6c43 60bd 50b1 9dbe 9c3b 113e 3838 3cbe
000002c0: 1d19 b73d 86fb a63c d3a8 913d dad8 52be
000002d0: 960d a63d e32c 143d 37c7 803e 5913 f03d
000002e0: b7c9 e83c 1025 6bbe 0eba e7bc 3353 96bd
000002f0: c911 bdbd 8175 74be b667 19be b86f 79be
00000300: fe28 f9bd bc34 aabd a932 993c a864 213e
00000310: 9ac9 56bd f1bb 863e cf6b 30be cb1b d2bc
00000320: 01b9 4ebd 446a f63d 1c6a 80bd 72bf 143e
00000330: f9b4 8cbd 0fff 9b3c 7a0e 6dba 747b 5f3d
00000340: d233 8c3e 88bc 6abd 4420 d03d 9c7b f33d
00000350: 46cc 143e 4185 c4be 6f53 003d 7b34 333e
00000360: 944e 40bc 0182 1abe e03c 3fbe 3794 02bd
00000370: f18f 643e 8ddf fbbc 47d3 18be 1695 a5bd
00000380: d7e1 873d 5af2 3dbe 229c 073e de6a a43d
00000390: bc67 8dbe 9fe0 53be 5f50 6fbe c7f1 83be
000003a0: 0679 8fbe a4b8 74bd 2834 c5bd b60d 503c
000003b0: 2c82 f63c 6f6b 9a3c 980d aebc c81b ed3d
000003c0: 7ec3 31be 6d26 30be 6ebf 1e3e e104 01bf
000003d0: d270 1f3e f00f 12be 5a09 48be 833f 2fbe
000003e0: a287 a0bc 285a debd 19fe 903c 126e 033d
000003f0: e33d 1a3e b04c 2a3d 1995 603e 76da 753d

fc3.bias f4 [25]
0.03151464 0.1491969 -0.005012079 -0.015568033 -0.07838254 0.030561227 0.12814426 0.027473083
0.13385008 0.025015658 -0.11974836 0.09650817 0.11436953 -0.017839769 -0.22394666 0.13167998
-0.065422535 -0.096279114 -0.022773312 -0.06674358 -0.038432024 0.034360185 0.06266947 -0.12602694
-0.058697432
00000000: 7f15 013d 12c7 183e 5e3c a4bb 1011 7fbc
00000010: 0687 a0bd 8a5b fa3c 4038 033e 3b0f e13c
00000020: ff0f 093e a3ed cc3c a13e f5bd 13a6 c53d
00000030: 923a ea3d b524 92bc 4652 65be 1ed7 063e
00000040: 40fc 85bd fc2d c5bd 198f babc dcb0 88bd
00000050: e66a 1dbd 44bd 0c3d da58 803d 350d 01be
00000060: b86c 70bd
